<?xml version="1.0"?>
<net name="main_graph" version="11">
	<layers>
		<layer id="1" name="pixel_values" type="Parameter" version="opset1">
			<data shape="?,3,384,384" element_type="f32" />
			<output>
				<port id="0" precision="FP32" names="/vision_model/embeddings/Cast_output_0,pixel_values">
					<dim>-1</dim>
					<dim>3</dim>
					<dim>384</dim>
					<dim>384</dim>
				</port>
			</output>
		</layer>
		<layer id="0" name="decoder_input_ids" type="Parameter" version="opset1">
			<data shape="?,?" element_type="i64" />
			<rt_info>
				<attribute name="old_api_map_element_type" version="0" value="i32" />
			</rt_info>
			<output>
				<port id="0" precision="I64" names="decoder_input_ids">
					<dim>-1</dim>
					<dim>-1</dim>
				</port>
			</output>
		</layer>
		<layer id="2" name="Constant_17517_compressed" type="Const" version="opset1">
			<data element_type="f16" shape="1, 1, 768" offset="0" size="1536" />
			<output>
				<port id="0" precision="FP16">
					<dim>1</dim>
					<dim>1</dim>
					<dim>768</dim>
				</port>
			</output>
		</layer>
		<layer id="3" name="Constant_17517" type="Convert" version="opset1">
			<data destination_type="f32" />
			<rt_info>
				<attribute name="decompression" version="0" />
			</rt_info>
			<input>
				<port id="0" precision="FP16">
					<dim>1</dim>
					<dim>1</dim>
					<dim>768</dim>
				</port>
			</input>
			<output>
				<port id="1" precision="FP32">
					<dim>1</dim>
					<dim>1</dim>
					<dim>768</dim>
				</port>
			</output>
		</layer>
		<layer id="4" name="Constant_17516_compressed" type="Const" version="opset1">
			<data element_type="f16" shape="1, 1, 3072" offset="1536" size="6144" />
			<output>
				<port id="0" precision="FP16">
					<dim>1</dim>
					<dim>1</dim>
					<dim>3072</dim>
				</port>
			</output>
		</layer>
		<layer id="5" name="Constant_17516" type="Convert" version="opset1">
			<data destination_type="f32" />
			<rt_info>
				<attribute name="decompression" version="0" />
			</rt_info>
			<input>
				<port id="0" precision="FP16">
					<dim>1</dim>
					<dim>1</dim>
					<dim>3072</dim>
				</port>
			</input>
			<output>
				<port id="1" precision="FP32">
					<dim>1</dim>
					<dim>1</dim>
					<dim>3072</dim>
				</port>
			</output>
		</layer>
		<layer id="6" name="Constant_17513_compressed" type="Const" version="opset1">
			<data element_type="f16" shape="1, 1, 768" offset="7680" size="1536" />
			<output>
				<port id="0" precision="FP16">
					<dim>1</dim>
					<dim>1</dim>
					<dim>768</dim>
				</port>
			</output>
		</layer>
		<layer id="7" name="Constant_17513" type="Convert" version="opset1">
			<data destination_type="f32" />
			<rt_info>
				<attribute name="decompression" version="0" />
			</rt_info>
			<input>
				<port id="0" precision="FP16">
					<dim>1</dim>
					<dim>1</dim>
					<dim>768</dim>
				</port>
			</input>
			<output>
				<port id="1" precision="FP32">
					<dim>1</dim>
					<dim>1</dim>
					<dim>768</dim>
				</port>
			</output>
		</layer>
		<layer id="8" name="Constant_17511_compressed" type="Const" version="opset1">
			<data element_type="f16" shape="1, 1, 2304" offset="9216" size="4608" />
			<output>
				<port id="0" precision="FP16">
					<dim>1</dim>
					<dim>1</dim>
					<dim>2304</dim>
				</port>
			</output>
		</layer>
		<layer id="9" name="Constant_17511" type="Convert" version="opset1">
			<data destination_type="f32" />
			<rt_info>
				<attribute name="decompression" version="0" />
			</rt_info>
			<input>
				<port id="0" precision="FP16">
					<dim>1</dim>
					<dim>1</dim>
					<dim>2304</dim>
				</port>
			</input>
			<output>
				<port id="1" precision="FP32">
					<dim>1</dim>
					<dim>1</dim>
					<dim>2304</dim>
				</port>
			</output>
		</layer>
		<layer id="10" name="Constant_17508_compressed" type="Const" version="opset1">
			<data element_type="f16" shape="1, 1, 768" offset="13824" size="1536" />
			<output>
				<port id="0" precision="FP16">
					<dim>1</dim>
					<dim>1</dim>
					<dim>768</dim>
				</port>
			</output>
		</layer>
		<layer id="11" name="Constant_17508" type="Convert" version="opset1">
			<data destination_type="f32" />
			<rt_info>
				<attribute name="decompression" version="0" />
			</rt_info>
			<input>
				<port id="0" precision="FP16">
					<dim>1</dim>
					<dim>1</dim>
					<dim>768</dim>
				</port>
			</input>
			<output>
				<port id="1" precision="FP32">
					<dim>1</dim>
					<dim>1</dim>
					<dim>768</dim>
				</port>
			</output>
		</layer>
		<layer id="12" name="Constant_17507_compressed" type="Const" version="opset1">
			<data element_type="f16" shape="1, 1, 3072" offset="15360" size="6144" />
			<output>
				<port id="0" precision="FP16">
					<dim>1</dim>
					<dim>1</dim>
					<dim>3072</dim>
				</port>
			</output>
		</layer>
		<layer id="13" name="Constant_17507" type="Convert" version="opset1">
			<data destination_type="f32" />
			<rt_info>
				<attribute name="decompression" version="0" />
			</rt_info>
			<input>
				<port id="0" precision="FP16">
					<dim>1</dim>
					<dim>1</dim>
					<dim>3072</dim>
				</port>
			</input>
			<output>
				<port id="1" precision="FP32">
					<dim>1</dim>
					<dim>1</dim>
					<dim>3072</dim>
				</port>
			</output>
		</layer>
		<layer id="14" name="Constant_17504_compressed" type="Const" version="opset1">
			<data element_type="f16" shape="1, 1, 768" offset="21504" size="1536" />
			<output>
				<port id="0" precision="FP16">
					<dim>1</dim>
					<dim>1</dim>
					<dim>768</dim>
				</port>
			</output>
		</layer>
		<layer id="15" name="Constant_17504" type="Convert" version="opset1">
			<data destination_type="f32" />
			<rt_info>
				<attribute name="decompression" version="0" />
			</rt_info>
			<input>
				<port id="0" precision="FP16">
					<dim>1</dim>
					<dim>1</dim>
					<dim>768</dim>
				</port>
			</input>
			<output>
				<port id="1" precision="FP32">
					<dim>1</dim>
					<dim>1</dim>
					<dim>768</dim>
				</port>
			</output>
		</layer>
		<layer id="16" name="Constant_17502_compressed" type="Const" version="opset1">
			<data element_type="f16" shape="1, 1, 2304" offset="23040" size="4608" />
			<output>
				<port id="0" precision="FP16">
					<dim>1</dim>
					<dim>1</dim>
					<dim>2304</dim>
				</port>
			</output>
		</layer>
		<layer id="17" name="Constant_17502" type="Convert" version="opset1">
			<data destination_type="f32" />
			<rt_info>
				<attribute name="decompression" version="0" />
			</rt_info>
			<input>
				<port id="0" precision="FP16">
					<dim>1</dim>
					<dim>1</dim>
					<dim>2304</dim>
				</port>
			</input>
			<output>
				<port id="1" precision="FP32">
					<dim>1</dim>
					<dim>1</dim>
					<dim>2304</dim>
				</port>
			</output>
		</layer>
		<layer id="18" name="Constant_17499_compressed" type="Const" version="opset1">
			<data element_type="f16" shape="1, 1, 768" offset="27648" size="1536" />
			<output>
				<port id="0" precision="FP16">
					<dim>1</dim>
					<dim>1</dim>
					<dim>768</dim>
				</port>
			</output>
		</layer>
		<layer id="19" name="Constant_17499" type="Convert" version="opset1">
			<data destination_type="f32" />
			<rt_info>
				<attribute name="decompression" version="0" />
			</rt_info>
			<input>
				<port id="0" precision="FP16">
					<dim>1</dim>
					<dim>1</dim>
					<dim>768</dim>
				</port>
			</input>
			<output>
				<port id="1" precision="FP32">
					<dim>1</dim>
					<dim>1</dim>
					<dim>768</dim>
				</port>
			</output>
		</layer>
		<layer id="20" name="Constant_17498_compressed" type="Const" version="opset1">
			<data element_type="f16" shape="1, 1, 3072" offset="29184" size="6144" />
			<output>
				<port id="0" precision="FP16">
					<dim>1</dim>
					<dim>1</dim>
					<dim>3072</dim>
				</port>
			</output>
		</layer>
		<layer id="21" name="Constant_17498" type="Convert" version="opset1">
			<data destination_type="f32" />
			<rt_info>
				<attribute name="decompression" version="0" />
			</rt_info>
			<input>
				<port id="0" precision="FP16">
					<dim>1</dim>
					<dim>1</dim>
					<dim>3072</dim>
				</port>
			</input>
			<output>
				<port id="1" precision="FP32">
					<dim>1</dim>
					<dim>1</dim>
					<dim>3072</dim>
				</port>
			</output>
		</layer>
		<layer id="22" name="Constant_17495_compressed" type="Const" version="opset1">
			<data element_type="f16" shape="1, 1, 768" offset="35328" size="1536" />
			<output>
				<port id="0" precision="FP16">
					<dim>1</dim>
					<dim>1</dim>
					<dim>768</dim>
				</port>
			</output>
		</layer>
		<layer id="23" name="Constant_17495" type="Convert" version="opset1">
			<data destination_type="f32" />
			<rt_info>
				<attribute name="decompression" version="0" />
			</rt_info>
			<input>
				<port id="0" precision="FP16">
					<dim>1</dim>
					<dim>1</dim>
					<dim>768</dim>
				</port>
			</input>
			<output>
				<port id="1" precision="FP32">
					<dim>1</dim>
					<dim>1</dim>
					<dim>768</dim>
				</port>
			</output>
		</layer>
		<layer id="24" name="Constant_17493_compressed" type="Const" version="opset1">
			<data element_type="f16" shape="1, 1, 2304" offset="36864" size="4608" />
			<output>
				<port id="0" precision="FP16">
					<dim>1</dim>
					<dim>1</dim>
					<dim>2304</dim>
				</port>
			</output>
		</layer>
		<layer id="25" name="Constant_17493" type="Convert" version="opset1">
			<data destination_type="f32" />
			<rt_info>
				<attribute name="decompression" version="0" />
			</rt_info>
			<input>
				<port id="0" precision="FP16">
					<dim>1</dim>
					<dim>1</dim>
					<dim>2304</dim>
				</port>
			</input>
			<output>
				<port id="1" precision="FP32">
					<dim>1</dim>
					<dim>1</dim>
					<dim>2304</dim>
				</port>
			</output>
		</layer>
		<layer id="26" name="Constant_17490_compressed" type="Const" version="opset1">
			<data element_type="f16" shape="1, 1, 768" offset="41472" size="1536" />
			<output>
				<port id="0" precision="FP16">
					<dim>1</dim>
					<dim>1</dim>
					<dim>768</dim>
				</port>
			</output>
		</layer>
		<layer id="27" name="Constant_17490" type="Convert" version="opset1">
			<data destination_type="f32" />
			<rt_info>
				<attribute name="decompression" version="0" />
			</rt_info>
			<input>
				<port id="0" precision="FP16">
					<dim>1</dim>
					<dim>1</dim>
					<dim>768</dim>
				</port>
			</input>
			<output>
				<port id="1" precision="FP32">
					<dim>1</dim>
					<dim>1</dim>
					<dim>768</dim>
				</port>
			</output>
		</layer>
		<layer id="28" name="Constant_17489_compressed" type="Const" version="opset1">
			<data element_type="f16" shape="1, 1, 3072" offset="43008" size="6144" />
			<output>
				<port id="0" precision="FP16">
					<dim>1</dim>
					<dim>1</dim>
					<dim>3072</dim>
				</port>
			</output>
		</layer>
		<layer id="29" name="Constant_17489" type="Convert" version="opset1">
			<data destination_type="f32" />
			<rt_info>
				<attribute name="decompression" version="0" />
			</rt_info>
			<input>
				<port id="0" precision="FP16">
					<dim>1</dim>
					<dim>1</dim>
					<dim>3072</dim>
				</port>
			</input>
			<output>
				<port id="1" precision="FP32">
					<dim>1</dim>
					<dim>1</dim>
					<dim>3072</dim>
				</port>
			</output>
		</layer>
		<layer id="30" name="Constant_17486_compressed" type="Const" version="opset1">
			<data element_type="f16" shape="1, 1, 768" offset="49152" size="1536" />
			<output>
				<port id="0" precision="FP16">
					<dim>1</dim>
					<dim>1</dim>
					<dim>768</dim>
				</port>
			</output>
		</layer>
		<layer id="31" name="Constant_17486" type="Convert" version="opset1">
			<data destination_type="f32" />
			<rt_info>
				<attribute name="decompression" version="0" />
			</rt_info>
			<input>
				<port id="0" precision="FP16">
					<dim>1</dim>
					<dim>1</dim>
					<dim>768</dim>
				</port>
			</input>
			<output>
				<port id="1" precision="FP32">
					<dim>1</dim>
					<dim>1</dim>
					<dim>768</dim>
				</port>
			</output>
		</layer>
		<layer id="32" name="Constant_17484_compressed" type="Const" version="opset1">
			<data element_type="f16" shape="1, 1, 2304" offset="50688" size="4608" />
			<output>
				<port id="0" precision="FP16">
					<dim>1</dim>
					<dim>1</dim>
					<dim>2304</dim>
				</port>
			</output>
		</layer>
		<layer id="33" name="Constant_17484" type="Convert" version="opset1">
			<data destination_type="f32" />
			<rt_info>
				<attribute name="decompression" version="0" />
			</rt_info>
			<input>
				<port id="0" precision="FP16">
					<dim>1</dim>
					<dim>1</dim>
					<dim>2304</dim>
				</port>
			</input>
			<output>
				<port id="1" precision="FP32">
					<dim>1</dim>
					<dim>1</dim>
					<dim>2304</dim>
				</port>
			</output>
		</layer>
		<layer id="34" name="Constant_17481_compressed" type="Const" version="opset1">
			<data element_type="f16" shape="1, 1, 768" offset="55296" size="1536" />
			<output>
				<port id="0" precision="FP16">
					<dim>1</dim>
					<dim>1</dim>
					<dim>768</dim>
				</port>
			</output>
		</layer>
		<layer id="35" name="Constant_17481" type="Convert" version="opset1">
			<data destination_type="f32" />
			<rt_info>
				<attribute name="decompression" version="0" />
			</rt_info>
			<input>
				<port id="0" precision="FP16">
					<dim>1</dim>
					<dim>1</dim>
					<dim>768</dim>
				</port>
			</input>
			<output>
				<port id="1" precision="FP32">
					<dim>1</dim>
					<dim>1</dim>
					<dim>768</dim>
				</port>
			</output>
		</layer>
		<layer id="36" name="Constant_17480_compressed" type="Const" version="opset1">
			<data element_type="f16" shape="1, 1, 3072" offset="56832" size="6144" />
			<output>
				<port id="0" precision="FP16">
					<dim>1</dim>
					<dim>1</dim>
					<dim>3072</dim>
				</port>
			</output>
		</layer>
		<layer id="37" name="Constant_17480" type="Convert" version="opset1">
			<data destination_type="f32" />
			<rt_info>
				<attribute name="decompression" version="0" />
			</rt_info>
			<input>
				<port id="0" precision="FP16">
					<dim>1</dim>
					<dim>1</dim>
					<dim>3072</dim>
				</port>
			</input>
			<output>
				<port id="1" precision="FP32">
					<dim>1</dim>
					<dim>1</dim>
					<dim>3072</dim>
				</port>
			</output>
		</layer>
		<layer id="38" name="Constant_17477_compressed" type="Const" version="opset1">
			<data element_type="f16" shape="1, 1, 768" offset="62976" size="1536" />
			<output>
				<port id="0" precision="FP16">
					<dim>1</dim>
					<dim>1</dim>
					<dim>768</dim>
				</port>
			</output>
		</layer>
		<layer id="39" name="Constant_17477" type="Convert" version="opset1">
			<data destination_type="f32" />
			<rt_info>
				<attribute name="decompression" version="0" />
			</rt_info>
			<input>
				<port id="0" precision="FP16">
					<dim>1</dim>
					<dim>1</dim>
					<dim>768</dim>
				</port>
			</input>
			<output>
				<port id="1" precision="FP32">
					<dim>1</dim>
					<dim>1</dim>
					<dim>768</dim>
				</port>
			</output>
		</layer>
		<layer id="40" name="Constant_17475_compressed" type="Const" version="opset1">
			<data element_type="f16" shape="1, 1, 2304" offset="64512" size="4608" />
			<output>
				<port id="0" precision="FP16">
					<dim>1</dim>
					<dim>1</dim>
					<dim>2304</dim>
				</port>
			</output>
		</layer>
		<layer id="41" name="Constant_17475" type="Convert" version="opset1">
			<data destination_type="f32" />
			<rt_info>
				<attribute name="decompression" version="0" />
			</rt_info>
			<input>
				<port id="0" precision="FP16">
					<dim>1</dim>
					<dim>1</dim>
					<dim>2304</dim>
				</port>
			</input>
			<output>
				<port id="1" precision="FP32">
					<dim>1</dim>
					<dim>1</dim>
					<dim>2304</dim>
				</port>
			</output>
		</layer>
		<layer id="42" name="Constant_17472_compressed" type="Const" version="opset1">
			<data element_type="f16" shape="1, 1, 768" offset="69120" size="1536" />
			<output>
				<port id="0" precision="FP16">
					<dim>1</dim>
					<dim>1</dim>
					<dim>768</dim>
				</port>
			</output>
		</layer>
		<layer id="43" name="Constant_17472" type="Convert" version="opset1">
			<data destination_type="f32" />
			<rt_info>
				<attribute name="decompression" version="0" />
			</rt_info>
			<input>
				<port id="0" precision="FP16">
					<dim>1</dim>
					<dim>1</dim>
					<dim>768</dim>
				</port>
			</input>
			<output>
				<port id="1" precision="FP32">
					<dim>1</dim>
					<dim>1</dim>
					<dim>768</dim>
				</port>
			</output>
		</layer>
		<layer id="44" name="Constant_17471_compressed" type="Const" version="opset1">
			<data element_type="f16" shape="1, 1, 3072" offset="70656" size="6144" />
			<output>
				<port id="0" precision="FP16">
					<dim>1</dim>
					<dim>1</dim>
					<dim>3072</dim>
				</port>
			</output>
		</layer>
		<layer id="45" name="Constant_17471" type="Convert" version="opset1">
			<data destination_type="f32" />
			<rt_info>
				<attribute name="decompression" version="0" />
			</rt_info>
			<input>
				<port id="0" precision="FP16">
					<dim>1</dim>
					<dim>1</dim>
					<dim>3072</dim>
				</port>
			</input>
			<output>
				<port id="1" precision="FP32">
					<dim>1</dim>
					<dim>1</dim>
					<dim>3072</dim>
				</port>
			</output>
		</layer>
		<layer id="46" name="Constant_17468_compressed" type="Const" version="opset1">
			<data element_type="f16" shape="1, 1, 768" offset="76800" size="1536" />
			<output>
				<port id="0" precision="FP16">
					<dim>1</dim>
					<dim>1</dim>
					<dim>768</dim>
				</port>
			</output>
		</layer>
		<layer id="47" name="Constant_17468" type="Convert" version="opset1">
			<data destination_type="f32" />
			<rt_info>
				<attribute name="decompression" version="0" />
			</rt_info>
			<input>
				<port id="0" precision="FP16">
					<dim>1</dim>
					<dim>1</dim>
					<dim>768</dim>
				</port>
			</input>
			<output>
				<port id="1" precision="FP32">
					<dim>1</dim>
					<dim>1</dim>
					<dim>768</dim>
				</port>
			</output>
		</layer>
		<layer id="48" name="Constant_17466_compressed" type="Const" version="opset1">
			<data element_type="f16" shape="1, 1, 2304" offset="78336" size="4608" />
			<output>
				<port id="0" precision="FP16">
					<dim>1</dim>
					<dim>1</dim>
					<dim>2304</dim>
				</port>
			</output>
		</layer>
		<layer id="49" name="Constant_17466" type="Convert" version="opset1">
			<data destination_type="f32" />
			<rt_info>
				<attribute name="decompression" version="0" />
			</rt_info>
			<input>
				<port id="0" precision="FP16">
					<dim>1</dim>
					<dim>1</dim>
					<dim>2304</dim>
				</port>
			</input>
			<output>
				<port id="1" precision="FP32">
					<dim>1</dim>
					<dim>1</dim>
					<dim>2304</dim>
				</port>
			</output>
		</layer>
		<layer id="50" name="Constant_17463_compressed" type="Const" version="opset1">
			<data element_type="f16" shape="1, 1, 768" offset="82944" size="1536" />
			<output>
				<port id="0" precision="FP16">
					<dim>1</dim>
					<dim>1</dim>
					<dim>768</dim>
				</port>
			</output>
		</layer>
		<layer id="51" name="Constant_17463" type="Convert" version="opset1">
			<data destination_type="f32" />
			<rt_info>
				<attribute name="decompression" version="0" />
			</rt_info>
			<input>
				<port id="0" precision="FP16">
					<dim>1</dim>
					<dim>1</dim>
					<dim>768</dim>
				</port>
			</input>
			<output>
				<port id="1" precision="FP32">
					<dim>1</dim>
					<dim>1</dim>
					<dim>768</dim>
				</port>
			</output>
		</layer>
		<layer id="52" name="Constant_17462_compressed" type="Const" version="opset1">
			<data element_type="f16" shape="1, 1, 3072" offset="84480" size="6144" />
			<output>
				<port id="0" precision="FP16">
					<dim>1</dim>
					<dim>1</dim>
					<dim>3072</dim>
				</port>
			</output>
		</layer>
		<layer id="53" name="Constant_17462" type="Convert" version="opset1">
			<data destination_type="f32" />
			<rt_info>
				<attribute name="decompression" version="0" />
			</rt_info>
			<input>
				<port id="0" precision="FP16">
					<dim>1</dim>
					<dim>1</dim>
					<dim>3072</dim>
				</port>
			</input>
			<output>
				<port id="1" precision="FP32">
					<dim>1</dim>
					<dim>1</dim>
					<dim>3072</dim>
				</port>
			</output>
		</layer>
		<layer id="54" name="Constant_17459_compressed" type="Const" version="opset1">
			<data element_type="f16" shape="1, 1, 768" offset="90624" size="1536" />
			<output>
				<port id="0" precision="FP16">
					<dim>1</dim>
					<dim>1</dim>
					<dim>768</dim>
				</port>
			</output>
		</layer>
		<layer id="55" name="Constant_17459" type="Convert" version="opset1">
			<data destination_type="f32" />
			<rt_info>
				<attribute name="decompression" version="0" />
			</rt_info>
			<input>
				<port id="0" precision="FP16">
					<dim>1</dim>
					<dim>1</dim>
					<dim>768</dim>
				</port>
			</input>
			<output>
				<port id="1" precision="FP32">
					<dim>1</dim>
					<dim>1</dim>
					<dim>768</dim>
				</port>
			</output>
		</layer>
		<layer id="56" name="Constant_17457_compressed" type="Const" version="opset1">
			<data element_type="f16" shape="1, 1, 2304" offset="92160" size="4608" />
			<output>
				<port id="0" precision="FP16">
					<dim>1</dim>
					<dim>1</dim>
					<dim>2304</dim>
				</port>
			</output>
		</layer>
		<layer id="57" name="Constant_17457" type="Convert" version="opset1">
			<data destination_type="f32" />
			<rt_info>
				<attribute name="decompression" version="0" />
			</rt_info>
			<input>
				<port id="0" precision="FP16">
					<dim>1</dim>
					<dim>1</dim>
					<dim>2304</dim>
				</port>
			</input>
			<output>
				<port id="1" precision="FP32">
					<dim>1</dim>
					<dim>1</dim>
					<dim>2304</dim>
				</port>
			</output>
		</layer>
		<layer id="58" name="Constant_17454_compressed" type="Const" version="opset1">
			<data element_type="f16" shape="1, 1, 768" offset="96768" size="1536" />
			<output>
				<port id="0" precision="FP16">
					<dim>1</dim>
					<dim>1</dim>
					<dim>768</dim>
				</port>
			</output>
		</layer>
		<layer id="59" name="Constant_17454" type="Convert" version="opset1">
			<data destination_type="f32" />
			<rt_info>
				<attribute name="decompression" version="0" />
			</rt_info>
			<input>
				<port id="0" precision="FP16">
					<dim>1</dim>
					<dim>1</dim>
					<dim>768</dim>
				</port>
			</input>
			<output>
				<port id="1" precision="FP32">
					<dim>1</dim>
					<dim>1</dim>
					<dim>768</dim>
				</port>
			</output>
		</layer>
		<layer id="60" name="Constant_17453_compressed" type="Const" version="opset1">
			<data element_type="f16" shape="1, 1, 3072" offset="98304" size="6144" />
			<output>
				<port id="0" precision="FP16">
					<dim>1</dim>
					<dim>1</dim>
					<dim>3072</dim>
				</port>
			</output>
		</layer>
		<layer id="61" name="Constant_17453" type="Convert" version="opset1">
			<data destination_type="f32" />
			<rt_info>
				<attribute name="decompression" version="0" />
			</rt_info>
			<input>
				<port id="0" precision="FP16">
					<dim>1</dim>
					<dim>1</dim>
					<dim>3072</dim>
				</port>
			</input>
			<output>
				<port id="1" precision="FP32">
					<dim>1</dim>
					<dim>1</dim>
					<dim>3072</dim>
				</port>
			</output>
		</layer>
		<layer id="62" name="Constant_17450_compressed" type="Const" version="opset1">
			<data element_type="f16" shape="1, 1, 768" offset="104448" size="1536" />
			<output>
				<port id="0" precision="FP16">
					<dim>1</dim>
					<dim>1</dim>
					<dim>768</dim>
				</port>
			</output>
		</layer>
		<layer id="63" name="Constant_17450" type="Convert" version="opset1">
			<data destination_type="f32" />
			<rt_info>
				<attribute name="decompression" version="0" />
			</rt_info>
			<input>
				<port id="0" precision="FP16">
					<dim>1</dim>
					<dim>1</dim>
					<dim>768</dim>
				</port>
			</input>
			<output>
				<port id="1" precision="FP32">
					<dim>1</dim>
					<dim>1</dim>
					<dim>768</dim>
				</port>
			</output>
		</layer>
		<layer id="64" name="Constant_17448_compressed" type="Const" version="opset1">
			<data element_type="f16" shape="1, 1, 2304" offset="105984" size="4608" />
			<output>
				<port id="0" precision="FP16">
					<dim>1</dim>
					<dim>1</dim>
					<dim>2304</dim>
				</port>
			</output>
		</layer>
		<layer id="65" name="Constant_17448" type="Convert" version="opset1">
			<data destination_type="f32" />
			<rt_info>
				<attribute name="decompression" version="0" />
			</rt_info>
			<input>
				<port id="0" precision="FP16">
					<dim>1</dim>
					<dim>1</dim>
					<dim>2304</dim>
				</port>
			</input>
			<output>
				<port id="1" precision="FP32">
					<dim>1</dim>
					<dim>1</dim>
					<dim>2304</dim>
				</port>
			</output>
		</layer>
		<layer id="66" name="Constant_17445_compressed" type="Const" version="opset1">
			<data element_type="f16" shape="1, 1, 768" offset="110592" size="1536" />
			<output>
				<port id="0" precision="FP16">
					<dim>1</dim>
					<dim>1</dim>
					<dim>768</dim>
				</port>
			</output>
		</layer>
		<layer id="67" name="Constant_17445" type="Convert" version="opset1">
			<data destination_type="f32" />
			<rt_info>
				<attribute name="decompression" version="0" />
			</rt_info>
			<input>
				<port id="0" precision="FP16">
					<dim>1</dim>
					<dim>1</dim>
					<dim>768</dim>
				</port>
			</input>
			<output>
				<port id="1" precision="FP32">
					<dim>1</dim>
					<dim>1</dim>
					<dim>768</dim>
				</port>
			</output>
		</layer>
		<layer id="68" name="Constant_17444_compressed" type="Const" version="opset1">
			<data element_type="f16" shape="1, 1, 3072" offset="112128" size="6144" />
			<output>
				<port id="0" precision="FP16">
					<dim>1</dim>
					<dim>1</dim>
					<dim>3072</dim>
				</port>
			</output>
		</layer>
		<layer id="69" name="Constant_17444" type="Convert" version="opset1">
			<data destination_type="f32" />
			<rt_info>
				<attribute name="decompression" version="0" />
			</rt_info>
			<input>
				<port id="0" precision="FP16">
					<dim>1</dim>
					<dim>1</dim>
					<dim>3072</dim>
				</port>
			</input>
			<output>
				<port id="1" precision="FP32">
					<dim>1</dim>
					<dim>1</dim>
					<dim>3072</dim>
				</port>
			</output>
		</layer>
		<layer id="70" name="Constant_17441_compressed" type="Const" version="opset1">
			<data element_type="f16" shape="1, 1, 768" offset="118272" size="1536" />
			<output>
				<port id="0" precision="FP16">
					<dim>1</dim>
					<dim>1</dim>
					<dim>768</dim>
				</port>
			</output>
		</layer>
		<layer id="71" name="Constant_17441" type="Convert" version="opset1">
			<data destination_type="f32" />
			<rt_info>
				<attribute name="decompression" version="0" />
			</rt_info>
			<input>
				<port id="0" precision="FP16">
					<dim>1</dim>
					<dim>1</dim>
					<dim>768</dim>
				</port>
			</input>
			<output>
				<port id="1" precision="FP32">
					<dim>1</dim>
					<dim>1</dim>
					<dim>768</dim>
				</port>
			</output>
		</layer>
		<layer id="72" name="Constant_17439_compressed" type="Const" version="opset1">
			<data element_type="f16" shape="1, 1, 2304" offset="119808" size="4608" />
			<output>
				<port id="0" precision="FP16">
					<dim>1</dim>
					<dim>1</dim>
					<dim>2304</dim>
				</port>
			</output>
		</layer>
		<layer id="73" name="Constant_17439" type="Convert" version="opset1">
			<data destination_type="f32" />
			<rt_info>
				<attribute name="decompression" version="0" />
			</rt_info>
			<input>
				<port id="0" precision="FP16">
					<dim>1</dim>
					<dim>1</dim>
					<dim>2304</dim>
				</port>
			</input>
			<output>
				<port id="1" precision="FP32">
					<dim>1</dim>
					<dim>1</dim>
					<dim>2304</dim>
				</port>
			</output>
		</layer>
		<layer id="74" name="Constant_17436_compressed" type="Const" version="opset1">
			<data element_type="f16" shape="1, 1, 768" offset="124416" size="1536" />
			<output>
				<port id="0" precision="FP16">
					<dim>1</dim>
					<dim>1</dim>
					<dim>768</dim>
				</port>
			</output>
		</layer>
		<layer id="75" name="Constant_17436" type="Convert" version="opset1">
			<data destination_type="f32" />
			<rt_info>
				<attribute name="decompression" version="0" />
			</rt_info>
			<input>
				<port id="0" precision="FP16">
					<dim>1</dim>
					<dim>1</dim>
					<dim>768</dim>
				</port>
			</input>
			<output>
				<port id="1" precision="FP32">
					<dim>1</dim>
					<dim>1</dim>
					<dim>768</dim>
				</port>
			</output>
		</layer>
		<layer id="76" name="Constant_17435_compressed" type="Const" version="opset1">
			<data element_type="f16" shape="1, 1, 3072" offset="125952" size="6144" />
			<output>
				<port id="0" precision="FP16">
					<dim>1</dim>
					<dim>1</dim>
					<dim>3072</dim>
				</port>
			</output>
		</layer>
		<layer id="77" name="Constant_17435" type="Convert" version="opset1">
			<data destination_type="f32" />
			<rt_info>
				<attribute name="decompression" version="0" />
			</rt_info>
			<input>
				<port id="0" precision="FP16">
					<dim>1</dim>
					<dim>1</dim>
					<dim>3072</dim>
				</port>
			</input>
			<output>
				<port id="1" precision="FP32">
					<dim>1</dim>
					<dim>1</dim>
					<dim>3072</dim>
				</port>
			</output>
		</layer>
		<layer id="78" name="Constant_17432_compressed" type="Const" version="opset1">
			<data element_type="f16" shape="1, 1, 768" offset="132096" size="1536" />
			<output>
				<port id="0" precision="FP16">
					<dim>1</dim>
					<dim>1</dim>
					<dim>768</dim>
				</port>
			</output>
		</layer>
		<layer id="79" name="Constant_17432" type="Convert" version="opset1">
			<data destination_type="f32" />
			<rt_info>
				<attribute name="decompression" version="0" />
			</rt_info>
			<input>
				<port id="0" precision="FP16">
					<dim>1</dim>
					<dim>1</dim>
					<dim>768</dim>
				</port>
			</input>
			<output>
				<port id="1" precision="FP32">
					<dim>1</dim>
					<dim>1</dim>
					<dim>768</dim>
				</port>
			</output>
		</layer>
		<layer id="80" name="Constant_17430_compressed" type="Const" version="opset1">
			<data element_type="f16" shape="1, 1, 2304" offset="133632" size="4608" />
			<output>
				<port id="0" precision="FP16">
					<dim>1</dim>
					<dim>1</dim>
					<dim>2304</dim>
				</port>
			</output>
		</layer>
		<layer id="81" name="Constant_17430" type="Convert" version="opset1">
			<data destination_type="f32" />
			<rt_info>
				<attribute name="decompression" version="0" />
			</rt_info>
			<input>
				<port id="0" precision="FP16">
					<dim>1</dim>
					<dim>1</dim>
					<dim>2304</dim>
				</port>
			</input>
			<output>
				<port id="1" precision="FP32">
					<dim>1</dim>
					<dim>1</dim>
					<dim>2304</dim>
				</port>
			</output>
		</layer>
		<layer id="82" name="Constant_17427_compressed" type="Const" version="opset1">
			<data element_type="f16" shape="1, 1, 768" offset="138240" size="1536" />
			<output>
				<port id="0" precision="FP16">
					<dim>1</dim>
					<dim>1</dim>
					<dim>768</dim>
				</port>
			</output>
		</layer>
		<layer id="83" name="Constant_17427" type="Convert" version="opset1">
			<data destination_type="f32" />
			<rt_info>
				<attribute name="decompression" version="0" />
			</rt_info>
			<input>
				<port id="0" precision="FP16">
					<dim>1</dim>
					<dim>1</dim>
					<dim>768</dim>
				</port>
			</input>
			<output>
				<port id="1" precision="FP32">
					<dim>1</dim>
					<dim>1</dim>
					<dim>768</dim>
				</port>
			</output>
		</layer>
		<layer id="84" name="Constant_17426_compressed" type="Const" version="opset1">
			<data element_type="f16" shape="1, 1, 3072" offset="139776" size="6144" />
			<output>
				<port id="0" precision="FP16">
					<dim>1</dim>
					<dim>1</dim>
					<dim>3072</dim>
				</port>
			</output>
		</layer>
		<layer id="85" name="Constant_17426" type="Convert" version="opset1">
			<data destination_type="f32" />
			<rt_info>
				<attribute name="decompression" version="0" />
			</rt_info>
			<input>
				<port id="0" precision="FP16">
					<dim>1</dim>
					<dim>1</dim>
					<dim>3072</dim>
				</port>
			</input>
			<output>
				<port id="1" precision="FP32">
					<dim>1</dim>
					<dim>1</dim>
					<dim>3072</dim>
				</port>
			</output>
		</layer>
		<layer id="86" name="Constant_17423_compressed" type="Const" version="opset1">
			<data element_type="f16" shape="1, 1, 768" offset="145920" size="1536" />
			<output>
				<port id="0" precision="FP16">
					<dim>1</dim>
					<dim>1</dim>
					<dim>768</dim>
				</port>
			</output>
		</layer>
		<layer id="87" name="Constant_17423" type="Convert" version="opset1">
			<data destination_type="f32" />
			<rt_info>
				<attribute name="decompression" version="0" />
			</rt_info>
			<input>
				<port id="0" precision="FP16">
					<dim>1</dim>
					<dim>1</dim>
					<dim>768</dim>
				</port>
			</input>
			<output>
				<port id="1" precision="FP32">
					<dim>1</dim>
					<dim>1</dim>
					<dim>768</dim>
				</port>
			</output>
		</layer>
		<layer id="88" name="Constant_17421_compressed" type="Const" version="opset1">
			<data element_type="f16" shape="1, 1, 2304" offset="147456" size="4608" />
			<output>
				<port id="0" precision="FP16">
					<dim>1</dim>
					<dim>1</dim>
					<dim>2304</dim>
				</port>
			</output>
		</layer>
		<layer id="89" name="Constant_17421" type="Convert" version="opset1">
			<data destination_type="f32" />
			<rt_info>
				<attribute name="decompression" version="0" />
			</rt_info>
			<input>
				<port id="0" precision="FP16">
					<dim>1</dim>
					<dim>1</dim>
					<dim>2304</dim>
				</port>
			</input>
			<output>
				<port id="1" precision="FP32">
					<dim>1</dim>
					<dim>1</dim>
					<dim>2304</dim>
				</port>
			</output>
		</layer>
		<layer id="90" name="Constant_17418_compressed" type="Const" version="opset1">
			<data element_type="f16" shape="1, 1, 768" offset="152064" size="1536" />
			<output>
				<port id="0" precision="FP16">
					<dim>1</dim>
					<dim>1</dim>
					<dim>768</dim>
				</port>
			</output>
		</layer>
		<layer id="91" name="Constant_17418" type="Convert" version="opset1">
			<data destination_type="f32" />
			<rt_info>
				<attribute name="decompression" version="0" />
			</rt_info>
			<input>
				<port id="0" precision="FP16">
					<dim>1</dim>
					<dim>1</dim>
					<dim>768</dim>
				</port>
			</input>
			<output>
				<port id="1" precision="FP32">
					<dim>1</dim>
					<dim>1</dim>
					<dim>768</dim>
				</port>
			</output>
		</layer>
		<layer id="92" name="Constant_17417_compressed" type="Const" version="opset1">
			<data element_type="f16" shape="1, 1, 3072" offset="153600" size="6144" />
			<output>
				<port id="0" precision="FP16">
					<dim>1</dim>
					<dim>1</dim>
					<dim>3072</dim>
				</port>
			</output>
		</layer>
		<layer id="93" name="Constant_17417" type="Convert" version="opset1">
			<data destination_type="f32" />
			<rt_info>
				<attribute name="decompression" version="0" />
			</rt_info>
			<input>
				<port id="0" precision="FP16">
					<dim>1</dim>
					<dim>1</dim>
					<dim>3072</dim>
				</port>
			</input>
			<output>
				<port id="1" precision="FP32">
					<dim>1</dim>
					<dim>1</dim>
					<dim>3072</dim>
				</port>
			</output>
		</layer>
		<layer id="94" name="Constant_17414_compressed" type="Const" version="opset1">
			<data element_type="f16" shape="1, 1, 768" offset="159744" size="1536" />
			<output>
				<port id="0" precision="FP16">
					<dim>1</dim>
					<dim>1</dim>
					<dim>768</dim>
				</port>
			</output>
		</layer>
		<layer id="95" name="Constant_17414" type="Convert" version="opset1">
			<data destination_type="f32" />
			<rt_info>
				<attribute name="decompression" version="0" />
			</rt_info>
			<input>
				<port id="0" precision="FP16">
					<dim>1</dim>
					<dim>1</dim>
					<dim>768</dim>
				</port>
			</input>
			<output>
				<port id="1" precision="FP32">
					<dim>1</dim>
					<dim>1</dim>
					<dim>768</dim>
				</port>
			</output>
		</layer>
		<layer id="96" name="Constant_17412_compressed" type="Const" version="opset1">
			<data element_type="f16" shape="1, 1, 2304" offset="161280" size="4608" />
			<output>
				<port id="0" precision="FP16">
					<dim>1</dim>
					<dim>1</dim>
					<dim>2304</dim>
				</port>
			</output>
		</layer>
		<layer id="97" name="Constant_17412" type="Convert" version="opset1">
			<data destination_type="f32" />
			<rt_info>
				<attribute name="decompression" version="0" />
			</rt_info>
			<input>
				<port id="0" precision="FP16">
					<dim>1</dim>
					<dim>1</dim>
					<dim>2304</dim>
				</port>
			</input>
			<output>
				<port id="1" precision="FP32">
					<dim>1</dim>
					<dim>1</dim>
					<dim>2304</dim>
				</port>
			</output>
		</layer>
		<layer id="98" name="vision_model.embeddings.class_embedding_compressed" type="Const" version="opset1">
			<data element_type="f16" shape="1, 1, 768" offset="165888" size="1536" />
			<output>
				<port id="0" precision="FP16">
					<dim>1</dim>
					<dim>1</dim>
					<dim>768</dim>
				</port>
			</output>
		</layer>
		<layer id="99" name="vision_model.embeddings.class_embedding" type="Convert" version="opset1">
			<data destination_type="f32" />
			<rt_info>
				<attribute name="decompression" version="0" />
			</rt_info>
			<input>
				<port id="0" precision="FP16">
					<dim>1</dim>
					<dim>1</dim>
					<dim>768</dim>
				</port>
			</input>
			<output>
				<port id="1" precision="FP32" names="vision_model.embeddings.class_embedding">
					<dim>1</dim>
					<dim>1</dim>
					<dim>768</dim>
				</port>
			</output>
		</layer>
		<layer id="100" name="vision_model.embeddings.patch_embedding.weight_compressed" type="Const" version="opset1">
			<data element_type="f16" shape="768, 3, 16, 16" offset="167424" size="1179648" />
			<output>
				<port id="0" precision="FP16">
					<dim>768</dim>
					<dim>3</dim>
					<dim>16</dim>
					<dim>16</dim>
				</port>
			</output>
		</layer>
		<layer id="101" name="vision_model.embeddings.patch_embedding.weight" type="Convert" version="opset1">
			<data destination_type="f32" />
			<rt_info>
				<attribute name="decompression" version="0" />
			</rt_info>
			<input>
				<port id="0" precision="FP16">
					<dim>768</dim>
					<dim>3</dim>
					<dim>16</dim>
					<dim>16</dim>
				</port>
			</input>
			<output>
				<port id="1" precision="FP32" names="vision_model.embeddings.patch_embedding.weight">
					<dim>768</dim>
					<dim>3</dim>
					<dim>16</dim>
					<dim>16</dim>
				</port>
			</output>
		</layer>
		<layer id="102" name="/vision_model/embeddings/patch_embedding/Conv/WithoutBiases" type="Convolution" version="opset1">
			<data strides="16, 16" dilations="1, 1" pads_begin="0, 0" pads_end="0, 0" auto_pad="explicit" />
			<input>
				<port id="0" precision="FP32">
					<dim>-1</dim>
					<dim>3</dim>
					<dim>384</dim>
					<dim>384</dim>
				</port>
				<port id="1" precision="FP32">
					<dim>768</dim>
					<dim>3</dim>
					<dim>16</dim>
					<dim>16</dim>
				</port>
			</input>
			<output>
				<port id="2" precision="FP32">
					<dim>-1</dim>
					<dim>768</dim>
					<dim>24</dim>
					<dim>24</dim>
				</port>
			</output>
		</layer>
		<layer id="103" name="Reshape_493_compressed" type="Const" version="opset1">
			<data element_type="f16" shape="1, 768, 1, 1" offset="1347072" size="1536" />
			<output>
				<port id="0" precision="FP16">
					<dim>1</dim>
					<dim>768</dim>
					<dim>1</dim>
					<dim>1</dim>
				</port>
			</output>
		</layer>
		<layer id="104" name="Reshape_493" type="Convert" version="opset1">
			<data destination_type="f32" />
			<rt_info>
				<attribute name="decompression" version="0" />
			</rt_info>
			<input>
				<port id="0" precision="FP16">
					<dim>1</dim>
					<dim>768</dim>
					<dim>1</dim>
					<dim>1</dim>
				</port>
			</input>
			<output>
				<port id="1" precision="FP32">
					<dim>1</dim>
					<dim>768</dim>
					<dim>1</dim>
					<dim>1</dim>
				</port>
			</output>
		</layer>
		<layer id="105" name="/vision_model/embeddings/patch_embedding/Conv" type="Add" version="opset1">
			<data auto_broadcast="numpy" />
			<input>
				<port id="0" precision="FP32">
					<dim>-1</dim>
					<dim>768</dim>
					<dim>24</dim>
					<dim>24</dim>
				</port>
				<port id="1" precision="FP32">
					<dim>1</dim>
					<dim>768</dim>
					<dim>1</dim>
					<dim>1</dim>
				</port>
			</input>
			<output>
				<port id="2" precision="FP32" names="/vision_model/embeddings/patch_embedding/Conv_output_0">
					<dim>-1</dim>
					<dim>768</dim>
					<dim>24</dim>
					<dim>24</dim>
				</port>
			</output>
		</layer>
		<layer id="106" name="ShapeOf_18443" type="ShapeOf" version="opset3">
			<data output_type="i64" />
			<input>
				<port id="0" precision="FP32">
					<dim>-1</dim>
					<dim>768</dim>
					<dim>24</dim>
					<dim>24</dim>
				</port>
			</input>
			<output>
				<port id="1" precision="I64">
					<dim>4</dim>
				</port>
			</output>
		</layer>
		<layer id="107" name="Constant_18444" type="Const" version="opset1">
			<data element_type="i64" shape="1" offset="1348608" size="8" />
			<rt_info>
				<attribute name="precise" version="0" />
			</rt_info>
			<output>
				<port id="0" precision="I64">
					<dim>1</dim>
				</port>
			</output>
		</layer>
		<layer id="108" name="Constant_18445" type="Const" version="opset1">
			<data element_type="i64" shape="" offset="1348608" size="8" />
			<rt_info>
				<attribute name="precise" version="0" />
			</rt_info>
			<output>
				<port id="0" precision="I64" />
			</output>
		</layer>
		<layer id="109" name="Gather_18446" type="Gather" version="opset8">
			<data batch_dims="0" />
			<input>
				<port id="0" precision="I64">
					<dim>4</dim>
				</port>
				<port id="1" precision="I64">
					<dim>1</dim>
				</port>
				<port id="2" precision="I64" />
			</input>
			<output>
				<port id="3" precision="I64" names="/vision_model/embeddings/Gather_output_0,/vision_model/embeddings/Unsqueeze_output_0">
					<dim>1</dim>
				</port>
			</output>
		</layer>
		<layer id="110" name="/vision_model/embeddings/Constant_8" type="Const" version="opset1">
			<data element_type="i64" shape="1" offset="1348616" size="8" />
			<rt_info>
				<attribute name="precise" version="0" />
			</rt_info>
			<output>
				<port id="0" precision="I64" names="/vision_model/embeddings/Constant_8_output_0">
					<dim>1</dim>
				</port>
			</output>
		</layer>
		<layer id="111" name="/vision_model/embeddings/Constant_9" type="Const" version="opset1">
			<data element_type="i64" shape="1" offset="1348624" size="8" />
			<rt_info>
				<attribute name="precise" version="0" />
			</rt_info>
			<output>
				<port id="0" precision="I64" names="/vision_model/embeddings/Constant_9_output_0">
					<dim>1</dim>
				</port>
			</output>
		</layer>
		<layer id="112" name="/vision_model/embeddings/Concat_1" type="Concat" version="opset1">
			<data axis="0" />
			<input>
				<port id="0" precision="I64">
					<dim>1</dim>
				</port>
				<port id="1" precision="I64">
					<dim>1</dim>
				</port>
				<port id="2" precision="I64">
					<dim>1</dim>
				</port>
			</input>
			<output>
				<port id="3" precision="I64" names="/vision_model/embeddings/Concat_1_output_0,/vision_model/embeddings/Reshape_1_output_0">
					<dim>3</dim>
				</port>
			</output>
		</layer>
		<layer id="113" name="/vision_model/embeddings/Mul" type="Const" version="opset1">
			<data element_type="i64" shape="3" offset="1348632" size="24" />
			<rt_info>
				<attribute name="precise" version="0" />
			</rt_info>
			<output>
				<port id="0" precision="I64" names="/vision_model/embeddings/Mul_output_0">
					<dim>3</dim>
				</port>
			</output>
		</layer>
		<layer id="114" name="/vision_model/embeddings/Equal" type="Equal" version="opset1">
			<data auto_broadcast="numpy" />
			<input>
				<port id="0" precision="I64">
					<dim>3</dim>
				</port>
				<port id="1" precision="I64">
					<dim>3</dim>
				</port>
			</input>
			<output>
				<port id="2" precision="BOOL" names="/vision_model/embeddings/Equal_output_0">
					<dim>3</dim>
				</port>
			</output>
		</layer>
		<layer id="115" name="/vision_model/embeddings/ConstantOfShape" type="Const" version="opset1">
			<data element_type="i64" shape="3" offset="1348656" size="24" />
			<rt_info>
				<attribute name="precise" version="0" />
			</rt_info>
			<output>
				<port id="0" precision="I64" names="/vision_model/embeddings/ConstantOfShape_output_0">
					<dim>3</dim>
				</port>
			</output>
		</layer>
		<layer id="116" name="/vision_model/embeddings/Where" type="Select" version="opset1">
			<data auto_broadcast="numpy" />
			<input>
				<port id="0" precision="BOOL">
					<dim>3</dim>
				</port>
				<port id="1" precision="I64">
					<dim>3</dim>
				</port>
				<port id="2" precision="I64">
					<dim>3</dim>
				</port>
			</input>
			<output>
				<port id="3" precision="I64" names="/vision_model/embeddings/Where_output_0">
					<dim>3</dim>
				</port>
			</output>
		</layer>
		<layer id="117" name="/vision_model/embeddings/Expand" type="Broadcast" version="opset3">
			<data mode="bidirectional" />
			<input>
				<port id="0" precision="FP32">
					<dim>1</dim>
					<dim>1</dim>
					<dim>768</dim>
				</port>
				<port id="1" precision="I64">
					<dim>3</dim>
				</port>
			</input>
			<output>
				<port id="2" precision="FP32" names="/vision_model/embeddings/Cast_1_output_0,/vision_model/embeddings/Expand_output_0">
					<dim>-1</dim>
					<dim>1</dim>
					<dim>768</dim>
				</port>
			</output>
		</layer>
		<layer id="118" name="Constant_18551" type="Const" version="opset1">
			<data element_type="i64" shape="3" offset="1348680" size="24" />
			<rt_info>
				<attribute name="precise" version="0" />
			</rt_info>
			<output>
				<port id="0" precision="I64">
					<dim>3</dim>
				</port>
			</output>
		</layer>
		<layer id="119" name="/vision_model/embeddings/Reshape" type="Reshape" version="opset1">
			<data special_zero="true" />
			<input>
				<port id="0" precision="FP32">
					<dim>-1</dim>
					<dim>768</dim>
					<dim>24</dim>
					<dim>24</dim>
				</port>
				<port id="1" precision="I64">
					<dim>3</dim>
				</port>
			</input>
			<output>
				<port id="2" precision="FP32" names="/vision_model/embeddings/Reshape_output_0">
					<dim>-1</dim>
					<dim>768</dim>
					<dim>576</dim>
				</port>
			</output>
		</layer>
		<layer id="120" name="Constant_510" type="Const" version="opset1">
			<data element_type="i64" shape="3" offset="1348704" size="24" />
			<output>
				<port id="0" precision="I64">
					<dim>3</dim>
				</port>
			</output>
		</layer>
		<layer id="121" name="/vision_model/embeddings/Transpose" type="Transpose" version="opset1">
			<input>
				<port id="0" precision="FP32">
					<dim>-1</dim>
					<dim>768</dim>
					<dim>576</dim>
				</port>
				<port id="1" precision="I64">
					<dim>3</dim>
				</port>
			</input>
			<output>
				<port id="2" precision="FP32" names="/vision_model/embeddings/Transpose_output_0">
					<dim>-1</dim>
					<dim>576</dim>
					<dim>768</dim>
				</port>
			</output>
		</layer>
		<layer id="122" name="/vision_model/embeddings/Concat_2" type="Concat" version="opset1">
			<data axis="1" />
			<input>
				<port id="0" precision="FP32">
					<dim>-1</dim>
					<dim>1</dim>
					<dim>768</dim>
				</port>
				<port id="1" precision="FP32">
					<dim>-1</dim>
					<dim>576</dim>
					<dim>768</dim>
				</port>
			</input>
			<output>
				<port id="2" precision="FP32" names="/vision_model/embeddings/Concat_2_output_0">
					<dim>-1</dim>
					<dim>577</dim>
					<dim>768</dim>
				</port>
			</output>
		</layer>
		<layer id="123" name="vision_model.embeddings.position_embedding_compressed" type="Const" version="opset1">
			<data element_type="f16" shape="1, 577, 768" offset="1348728" size="886272" />
			<output>
				<port id="0" precision="FP16">
					<dim>1</dim>
					<dim>577</dim>
					<dim>768</dim>
				</port>
			</output>
		</layer>
		<layer id="124" name="vision_model.embeddings.position_embedding" type="Convert" version="opset1">
			<data destination_type="f32" />
			<rt_info>
				<attribute name="decompression" version="0" />
			</rt_info>
			<input>
				<port id="0" precision="FP16">
					<dim>1</dim>
					<dim>577</dim>
					<dim>768</dim>
				</port>
			</input>
			<output>
				<port id="1" precision="FP32" names="vision_model.embeddings.position_embedding">
					<dim>1</dim>
					<dim>577</dim>
					<dim>768</dim>
				</port>
			</output>
		</layer>
		<layer id="125" name="/vision_model/embeddings/Constant_14" type="Const" version="opset1">
			<data element_type="i64" shape="1" offset="1348608" size="8" />
			<output>
				<port id="0" precision="I64" names="/vision_model/embeddings/Constant_14_output_0">
					<dim>1</dim>
				</port>
			</output>
		</layer>
		<layer id="126" name="ShapeOf_18455" type="ShapeOf" version="opset3">
			<data output_type="i64" />
			<input>
				<port id="0" precision="FP32">
					<dim>-1</dim>
					<dim>577</dim>
					<dim>768</dim>
				</port>
			</input>
			<output>
				<port id="1" precision="I64" names="/text_decoder/bert/Shape_3_output_0,/text_decoder/bert/Shape_4_output_0,/vision_model/embeddings/Shape_3_output_0,/vision_model/encoder/layers.0/self_attn/Shape_1_output_0,/vision_model/encoder/layers.0/self_attn/Shape_2_output_0,/vision_model/encoder/layers.0/self_attn/Shape_output_0,/vision_model/encoder/layers.1/self_attn/Shape_1_output_0,/vision_model/encoder/layers.1/self_attn/Shape_2_output_0,/vision_model/encoder/layers.1/self_attn/Shape_output_0,/vision_model/encoder/layers.10/self_attn/Shape_1_output_0,/vision_model/encoder/layers.10/self_attn/Shape_2_output_0,/vision_model/encoder/layers.10/self_attn/Shape_output_0,/vision_model/encoder/layers.11/self_attn/Shape_1_output_0,/vision_model/encoder/layers.11/self_attn/Shape_2_output_0,/vision_model/encoder/layers.11/self_attn/Shape_output_0,/vision_model/encoder/layers.2/self_attn/Shape_1_output_0,/vision_model/encoder/layers.2/self_attn/Shape_2_output_0,/vision_model/encoder/layers.2/self_attn/Shape_output_0,/vision_model/encoder/layers.3/self_attn/Shape_1_output_0,/vision_model/encoder/layers.3/self_attn/Shape_2_output_0,/vision_model/encoder/layers.3/self_attn/Shape_output_0,/vision_model/encoder/layers.4/self_attn/Shape_1_output_0,/vision_model/encoder/layers.4/self_attn/Shape_2_output_0,/vision_model/encoder/layers.4/self_attn/Shape_output_0,/vision_model/encoder/layers.5/self_attn/Shape_1_output_0,/vision_model/encoder/layers.5/self_attn/Shape_2_output_0,/vision_model/encoder/layers.5/self_attn/Shape_output_0,/vision_model/encoder/layers.6/self_attn/Shape_1_output_0,/vision_model/encoder/layers.6/self_attn/Shape_2_output_0,/vision_model/encoder/layers.6/self_attn/Shape_output_0,/vision_model/encoder/layers.7/self_attn/Shape_1_output_0,/vision_model/encoder/layers.7/self_attn/Shape_2_output_0,/vision_model/encoder/layers.7/self_attn/Shape_output_0,/vision_model/encoder/layers.8/self_attn/Shape_1_output_0,/vision_model/encoder/layers.8/self_attn/Shape_2_output_0,/vision_model/encoder/layers.8/self_attn/Shape_output_0,/vision_model/encoder/layers.9/self_attn/Shape_1_output_0,/vision_model/encoder/layers.9/self_attn/Shape_2_output_0,/vision_model/encoder/layers.9/self_attn/Shape_output_0">
					<dim>3</dim>
				</port>
			</output>
		</layer>
		<layer id="127" name="Constant_18456" type="Const" version="opset1">
			<data element_type="i64" shape="1" offset="1348616" size="8" />
			<output>
				<port id="0" precision="I64">
					<dim>1</dim>
				</port>
			</output>
		</layer>
		<layer id="128" name="Constant_18457" type="Const" version="opset1">
			<data element_type="i64" shape="" offset="1348608" size="8" />
			<output>
				<port id="0" precision="I64" />
			</output>
		</layer>
		<layer id="129" name="Gather_18458" type="Gather" version="opset8">
			<data batch_dims="0" />
			<input>
				<port id="0" precision="I64">
					<dim>3</dim>
				</port>
				<port id="1" precision="I64">
					<dim>1</dim>
				</port>
				<port id="2" precision="I64" />
			</input>
			<output>
				<port id="3" precision="I64" names="/vision_model/embeddings/Gather_1_output_0,/vision_model/embeddings/Unsqueeze_1_output_0">
					<dim>1</dim>
				</port>
			</output>
		</layer>
		<layer id="130" name="/vision_model/embeddings/Constant_16" type="Const" version="opset1">
			<data element_type="i64" shape="1" offset="1348616" size="8" />
			<output>
				<port id="0" precision="I64" names="/vision_model/embeddings/Constant_16_output_0">
					<dim>1</dim>
				</port>
			</output>
		</layer>
		<layer id="131" name="/vision_model/embeddings/Constant_13" type="Const" version="opset1">
			<data element_type="i64" shape="1" offset="1348616" size="8" />
			<output>
				<port id="0" precision="I64" names="/vision_model/embeddings/Constant_13_output_0">
					<dim>1</dim>
				</port>
			</output>
		</layer>
		<layer id="132" name="/vision_model/embeddings/Slice_1" type="Slice" version="opset8">
			<input>
				<port id="0" precision="FP32">
					<dim>1</dim>
					<dim>577</dim>
					<dim>768</dim>
				</port>
				<port id="1" precision="I64">
					<dim>1</dim>
				</port>
				<port id="2" precision="I64">
					<dim>1</dim>
				</port>
				<port id="3" precision="I64">
					<dim>1</dim>
				</port>
				<port id="4" precision="I64">
					<dim>1</dim>
				</port>
			</input>
			<output>
				<port id="5" precision="FP32" names="/vision_model/embeddings/Cast_2_output_0,/vision_model/embeddings/Slice_1_output_0">
					<dim>1</dim>
					<dim>577</dim>
					<dim>768</dim>
				</port>
			</output>
		</layer>
		<layer id="133" name="/vision_model/embeddings/Add" type="Add" version="opset1">
			<data auto_broadcast="numpy" />
			<input>
				<port id="0" precision="FP32">
					<dim>-1</dim>
					<dim>577</dim>
					<dim>768</dim>
				</port>
				<port id="1" precision="FP32">
					<dim>1</dim>
					<dim>577</dim>
					<dim>768</dim>
				</port>
			</input>
			<output>
				<port id="2" precision="FP32" names="/vision_model/embeddings/Add_output_0">
					<dim>-1</dim>
					<dim>577</dim>
					<dim>768</dim>
				</port>
			</output>
		</layer>
		<layer id="134" name="Constant_552" type="Const" version="opset1">
			<data element_type="i64" shape="1" offset="1348624" size="8" />
			<output>
				<port id="0" precision="I64">
					<dim>1</dim>
				</port>
			</output>
		</layer>
		<layer id="135" name="/vision_model/encoder/layers.0/layer_norm1/Div" type="MVN" version="opset6">
			<data eps="9.9999997473787516e-06" normalize_variance="true" eps_mode="INSIDE_SQRT" />
			<input>
				<port id="0" precision="FP32">
					<dim>-1</dim>
					<dim>577</dim>
					<dim>768</dim>
				</port>
				<port id="1" precision="I64">
					<dim>1</dim>
				</port>
			</input>
			<output>
				<port id="2" precision="FP32" names="/vision_model/encoder/layers.0/layer_norm1/Div_output_0">
					<dim>-1</dim>
					<dim>577</dim>
					<dim>768</dim>
				</port>
			</output>
		</layer>
		<layer id="136" name="Constant_17410_compressed" type="Const" version="opset1">
			<data element_type="f16" shape="1, 1, 768" offset="2235000" size="1536" />
			<output>
				<port id="0" precision="FP16">
					<dim>1</dim>
					<dim>1</dim>
					<dim>768</dim>
				</port>
			</output>
		</layer>
		<layer id="137" name="Constant_17410" type="Convert" version="opset1">
			<data destination_type="f32" />
			<rt_info>
				<attribute name="decompression" version="0" />
			</rt_info>
			<input>
				<port id="0" precision="FP16">
					<dim>1</dim>
					<dim>1</dim>
					<dim>768</dim>
				</port>
			</input>
			<output>
				<port id="1" precision="FP32">
					<dim>1</dim>
					<dim>1</dim>
					<dim>768</dim>
				</port>
			</output>
		</layer>
		<layer id="138" name="/vision_model/encoder/layers.0/layer_norm1/Mul" type="Multiply" version="opset1">
			<data auto_broadcast="numpy" />
			<input>
				<port id="0" precision="FP32">
					<dim>-1</dim>
					<dim>577</dim>
					<dim>768</dim>
				</port>
				<port id="1" precision="FP32">
					<dim>1</dim>
					<dim>1</dim>
					<dim>768</dim>
				</port>
			</input>
			<output>
				<port id="2" precision="FP32" names="/vision_model/encoder/layers.0/layer_norm1/Mul_output_0">
					<dim>-1</dim>
					<dim>577</dim>
					<dim>768</dim>
				</port>
			</output>
		</layer>
		<layer id="139" name="Constant_17411_compressed" type="Const" version="opset1">
			<data element_type="f16" shape="1, 1, 768" offset="2236536" size="1536" />
			<output>
				<port id="0" precision="FP16">
					<dim>1</dim>
					<dim>1</dim>
					<dim>768</dim>
				</port>
			</output>
		</layer>
		<layer id="140" name="Constant_17411" type="Convert" version="opset1">
			<data destination_type="f32" />
			<rt_info>
				<attribute name="decompression" version="0" />
			</rt_info>
			<input>
				<port id="0" precision="FP16">
					<dim>1</dim>
					<dim>1</dim>
					<dim>768</dim>
				</port>
			</input>
			<output>
				<port id="1" precision="FP32">
					<dim>1</dim>
					<dim>1</dim>
					<dim>768</dim>
				</port>
			</output>
		</layer>
		<layer id="141" name="/vision_model/encoder/layers.0/layer_norm1/Add_1" type="Add" version="opset1">
			<data auto_broadcast="numpy" />
			<input>
				<port id="0" precision="FP32">
					<dim>-1</dim>
					<dim>577</dim>
					<dim>768</dim>
				</port>
				<port id="1" precision="FP32">
					<dim>1</dim>
					<dim>1</dim>
					<dim>768</dim>
				</port>
			</input>
			<output>
				<port id="2" precision="FP32" names="/vision_model/encoder/layers.0/layer_norm1/Add_1_output_0">
					<dim>-1</dim>
					<dim>577</dim>
					<dim>768</dim>
				</port>
			</output>
		</layer>
		<layer id="142" name="Transpose_14770_compressed" type="Const" version="opset1">
			<data element_type="f16" shape="2304, 768" offset="2238072" size="3538944" />
			<output>
				<port id="0" precision="FP16">
					<dim>2304</dim>
					<dim>768</dim>
				</port>
			</output>
		</layer>
		<layer id="143" name="Transpose_14770" type="Convert" version="opset1">
			<data destination_type="f32" />
			<rt_info>
				<attribute name="decompression" version="0" />
			</rt_info>
			<input>
				<port id="0" precision="FP16">
					<dim>2304</dim>
					<dim>768</dim>
				</port>
			</input>
			<output>
				<port id="1" precision="FP32">
					<dim>2304</dim>
					<dim>768</dim>
				</port>
			</output>
		</layer>
		<layer id="144" name="/vision_model/encoder/layers.0/self_attn/qkv/MatMul" type="MatMul" version="opset1">
			<data transpose_a="false" transpose_b="true" />
			<input>
				<port id="0" precision="FP32">
					<dim>-1</dim>
					<dim>577</dim>
					<dim>768</dim>
				</port>
				<port id="1" precision="FP32">
					<dim>2304</dim>
					<dim>768</dim>
				</port>
			</input>
			<output>
				<port id="2" precision="FP32" names="/vision_model/encoder/layers.0/self_attn/qkv/MatMul_output_0">
					<dim>-1</dim>
					<dim>577</dim>
					<dim>2304</dim>
				</port>
			</output>
		</layer>
		<layer id="145" name="/vision_model/encoder/layers.0/self_attn/qkv/Add" type="Add" version="opset1">
			<data auto_broadcast="numpy" />
			<input>
				<port id="0" precision="FP32">
					<dim>1</dim>
					<dim>1</dim>
					<dim>2304</dim>
				</port>
				<port id="1" precision="FP32">
					<dim>-1</dim>
					<dim>577</dim>
					<dim>2304</dim>
				</port>
			</input>
			<output>
				<port id="2" precision="FP32" names="/vision_model/encoder/layers.0/self_attn/qkv/Add_output_0">
					<dim>-1</dim>
					<dim>577</dim>
					<dim>2304</dim>
				</port>
			</output>
		</layer>
		<layer id="146" name="Constant_18552" type="Const" version="opset1">
			<data element_type="i64" shape="5" offset="5777016" size="40" />
			<rt_info>
				<attribute name="precise" version="0" />
			</rt_info>
			<output>
				<port id="0" precision="I64">
					<dim>5</dim>
				</port>
			</output>
		</layer>
		<layer id="147" name="/vision_model/encoder/layers.0/self_attn/Reshape" type="Reshape" version="opset1">
			<data special_zero="true" />
			<input>
				<port id="0" precision="FP32">
					<dim>-1</dim>
					<dim>577</dim>
					<dim>2304</dim>
				</port>
				<port id="1" precision="I64">
					<dim>5</dim>
				</port>
			</input>
			<output>
				<port id="2" precision="FP32" names="/vision_model/encoder/layers.0/self_attn/Reshape_output_0">
					<dim>-1</dim>
					<dim>577</dim>
					<dim>3</dim>
					<dim>12</dim>
					<dim>64</dim>
				</port>
			</output>
		</layer>
		<layer id="148" name="Constant_639" type="Const" version="opset1">
			<data element_type="i64" shape="5" offset="5777056" size="40" />
			<output>
				<port id="0" precision="I64">
					<dim>5</dim>
				</port>
			</output>
		</layer>
		<layer id="149" name="/vision_model/encoder/layers.0/self_attn/Transpose" type="Transpose" version="opset1">
			<input>
				<port id="0" precision="FP32">
					<dim>-1</dim>
					<dim>577</dim>
					<dim>3</dim>
					<dim>12</dim>
					<dim>64</dim>
				</port>
				<port id="1" precision="I64">
					<dim>5</dim>
				</port>
			</input>
			<output>
				<port id="2" precision="FP32" names="/vision_model/encoder/layers.0/self_attn/Transpose_output_0">
					<dim>3</dim>
					<dim>-1</dim>
					<dim>12</dim>
					<dim>577</dim>
					<dim>64</dim>
				</port>
			</output>
		</layer>
		<layer id="150" name="/vision_model/embeddings/Constant" type="Const" version="opset1">
			<data element_type="i64" shape="" offset="1348608" size="8" />
			<output>
				<port id="0" precision="I64" names="/vision_model/embeddings/Constant_output_0" />
			</output>
		</layer>
		<layer id="151" name="Constant_641" type="Const" version="opset1">
			<data element_type="i64" shape="" offset="1348608" size="8" />
			<output>
				<port id="0" precision="I64" />
			</output>
		</layer>
		<layer id="152" name="/vision_model/encoder/layers.0/self_attn/Gather_3" type="Gather" version="opset8">
			<data batch_dims="0" />
			<input>
				<port id="0" precision="FP32">
					<dim>3</dim>
					<dim>-1</dim>
					<dim>12</dim>
					<dim>577</dim>
					<dim>64</dim>
				</port>
				<port id="1" precision="I64" />
				<port id="2" precision="I64" />
			</input>
			<output>
				<port id="3" precision="FP32" names="/vision_model/encoder/layers.0/self_attn/Gather_3_output_0">
					<dim>-1</dim>
					<dim>12</dim>
					<dim>577</dim>
					<dim>64</dim>
				</port>
			</output>
		</layer>
		<layer id="153" name="/vision_model/embeddings/patch_embedding/Constant" type="Const" version="opset1">
			<data element_type="i64" shape="" offset="1348616" size="8" />
			<output>
				<port id="0" precision="I64" names="/vision_model/embeddings/patch_embedding/Constant_output_0" />
			</output>
		</layer>
		<layer id="154" name="Constant_643" type="Const" version="opset1">
			<data element_type="i64" shape="" offset="1348608" size="8" />
			<output>
				<port id="0" precision="I64" />
			</output>
		</layer>
		<layer id="155" name="/vision_model/encoder/layers.0/self_attn/Gather_4" type="Gather" version="opset8">
			<data batch_dims="0" />
			<input>
				<port id="0" precision="FP32">
					<dim>3</dim>
					<dim>-1</dim>
					<dim>12</dim>
					<dim>577</dim>
					<dim>64</dim>
				</port>
				<port id="1" precision="I64" />
				<port id="2" precision="I64" />
			</input>
			<output>
				<port id="3" precision="FP32" names="/vision_model/encoder/layers.0/self_attn/Gather_4_output_0">
					<dim>-1</dim>
					<dim>12</dim>
					<dim>577</dim>
					<dim>64</dim>
				</port>
			</output>
		</layer>
		<layer id="156" name="Constant_17413_compressed" type="Const" version="opset1">
			<data element_type="f16" shape="1, 1, 1, 1" offset="5777096" size="2" />
			<output>
				<port id="0" precision="FP16">
					<dim>1</dim>
					<dim>1</dim>
					<dim>1</dim>
					<dim>1</dim>
				</port>
			</output>
		</layer>
		<layer id="157" name="Constant_17413" type="Convert" version="opset1">
			<data destination_type="f32" />
			<rt_info>
				<attribute name="decompression" version="0" />
			</rt_info>
			<input>
				<port id="0" precision="FP16">
					<dim>1</dim>
					<dim>1</dim>
					<dim>1</dim>
					<dim>1</dim>
				</port>
			</input>
			<output>
				<port id="1" precision="FP32">
					<dim>1</dim>
					<dim>1</dim>
					<dim>1</dim>
					<dim>1</dim>
				</port>
			</output>
		</layer>
		<layer id="158" name="Multiply_16938" type="Multiply" version="opset1">
			<data auto_broadcast="numpy" />
			<input>
				<port id="0" precision="FP32">
					<dim>-1</dim>
					<dim>12</dim>
					<dim>577</dim>
					<dim>64</dim>
				</port>
				<port id="1" precision="FP32">
					<dim>1</dim>
					<dim>1</dim>
					<dim>1</dim>
					<dim>1</dim>
				</port>
			</input>
			<output>
				<port id="2" precision="FP32">
					<dim>-1</dim>
					<dim>12</dim>
					<dim>577</dim>
					<dim>64</dim>
				</port>
			</output>
		</layer>
		<layer id="159" name="/vision_model/encoder/layers.0/self_attn/Mul" type="MatMul" version="opset1">
			<data transpose_a="false" transpose_b="true" />
			<input>
				<port id="0" precision="FP32">
					<dim>-1</dim>
					<dim>12</dim>
					<dim>577</dim>
					<dim>64</dim>
				</port>
				<port id="1" precision="FP32">
					<dim>-1</dim>
					<dim>12</dim>
					<dim>577</dim>
					<dim>64</dim>
				</port>
			</input>
			<output>
				<port id="2" precision="FP32" names="/vision_model/encoder/layers.0/self_attn/Mul_output_0">
					<dim>-1</dim>
					<dim>12</dim>
					<dim>577</dim>
					<dim>577</dim>
				</port>
			</output>
		</layer>
		<layer id="160" name="/vision_model/encoder/layers.0/self_attn/Softmax" type="SoftMax" version="opset8">
			<data axis="-1" />
			<input>
				<port id="0" precision="FP32">
					<dim>-1</dim>
					<dim>12</dim>
					<dim>577</dim>
					<dim>577</dim>
				</port>
			</input>
			<output>
				<port id="1" precision="FP32" names="/vision_model/encoder/layers.0/self_attn/Softmax_output_0">
					<dim>-1</dim>
					<dim>12</dim>
					<dim>577</dim>
					<dim>577</dim>
				</port>
			</output>
		</layer>
		<layer id="161" name="/vision_model/embeddings/Constant_2" type="Const" version="opset1">
			<data element_type="i64" shape="" offset="5777098" size="8" />
			<output>
				<port id="0" precision="I64" names="/vision_model/embeddings/Constant_2_output_0" />
			</output>
		</layer>
		<layer id="162" name="Constant_645" type="Const" version="opset1">
			<data element_type="i64" shape="" offset="1348608" size="8" />
			<output>
				<port id="0" precision="I64" />
			</output>
		</layer>
		<layer id="163" name="/vision_model/encoder/layers.0/self_attn/Gather_5" type="Gather" version="opset8">
			<data batch_dims="0" />
			<input>
				<port id="0" precision="FP32">
					<dim>3</dim>
					<dim>-1</dim>
					<dim>12</dim>
					<dim>577</dim>
					<dim>64</dim>
				</port>
				<port id="1" precision="I64" />
				<port id="2" precision="I64" />
			</input>
			<output>
				<port id="3" precision="FP32" names="/vision_model/encoder/layers.0/self_attn/Gather_5_output_0">
					<dim>-1</dim>
					<dim>12</dim>
					<dim>577</dim>
					<dim>64</dim>
				</port>
			</output>
		</layer>
		<layer id="164" name="/vision_model/encoder/layers.0/self_attn/MatMul_1" type="MatMul" version="opset1">
			<data transpose_a="false" transpose_b="false" />
			<input>
				<port id="0" precision="FP32">
					<dim>-1</dim>
					<dim>12</dim>
					<dim>577</dim>
					<dim>577</dim>
				</port>
				<port id="1" precision="FP32">
					<dim>-1</dim>
					<dim>12</dim>
					<dim>577</dim>
					<dim>64</dim>
				</port>
			</input>
			<output>
				<port id="2" precision="FP32" names="/vision_model/encoder/layers.0/self_attn/MatMul_1_output_0">
					<dim>-1</dim>
					<dim>12</dim>
					<dim>577</dim>
					<dim>64</dim>
				</port>
			</output>
		</layer>
		<layer id="165" name="Constant_654" type="Const" version="opset1">
			<data element_type="i64" shape="4" offset="5777106" size="32" />
			<output>
				<port id="0" precision="I64">
					<dim>4</dim>
				</port>
			</output>
		</layer>
		<layer id="166" name="/vision_model/encoder/layers.0/self_attn/Transpose_2" type="Transpose" version="opset1">
			<input>
				<port id="0" precision="FP32">
					<dim>-1</dim>
					<dim>12</dim>
					<dim>577</dim>
					<dim>64</dim>
				</port>
				<port id="1" precision="I64">
					<dim>4</dim>
				</port>
			</input>
			<output>
				<port id="2" precision="FP32" names="/vision_model/encoder/layers.0/self_attn/Transpose_2_output_0">
					<dim>-1</dim>
					<dim>577</dim>
					<dim>12</dim>
					<dim>64</dim>
				</port>
			</output>
		</layer>
		<layer id="167" name="/vision_model/encoder/layers.0/self_attn/Concat_1" type="Const" version="opset1">
			<data element_type="i64" shape="3" offset="5777138" size="24" />
			<rt_info>
				<attribute name="precise" version="0" />
			</rt_info>
			<output>
				<port id="0" precision="I64">
					<dim>3</dim>
				</port>
			</output>
		</layer>
		<layer id="168" name="/vision_model/encoder/layers.0/self_attn/Reshape_1" type="Reshape" version="opset1">
			<data special_zero="true" />
			<input>
				<port id="0" precision="FP32">
					<dim>-1</dim>
					<dim>577</dim>
					<dim>12</dim>
					<dim>64</dim>
				</port>
				<port id="1" precision="I64">
					<dim>3</dim>
				</port>
			</input>
			<output>
				<port id="2" precision="FP32" names="/vision_model/encoder/layers.0/self_attn/Reshape_1_output_0">
					<dim>-1</dim>
					<dim>577</dim>
					<dim>768</dim>
				</port>
			</output>
		</layer>
		<layer id="169" name="Transpose_14779_compressed" type="Const" version="opset1">
			<data element_type="f16" shape="768, 768" offset="5777162" size="1179648" />
			<output>
				<port id="0" precision="FP16">
					<dim>768</dim>
					<dim>768</dim>
				</port>
			</output>
		</layer>
		<layer id="170" name="Transpose_14779" type="Convert" version="opset1">
			<data destination_type="f32" />
			<rt_info>
				<attribute name="decompression" version="0" />
			</rt_info>
			<input>
				<port id="0" precision="FP16">
					<dim>768</dim>
					<dim>768</dim>
				</port>
			</input>
			<output>
				<port id="1" precision="FP32">
					<dim>768</dim>
					<dim>768</dim>
				</port>
			</output>
		</layer>
		<layer id="171" name="/vision_model/encoder/layers.0/self_attn/projection/MatMul" type="MatMul" version="opset1">
			<data transpose_a="false" transpose_b="true" />
			<input>
				<port id="0" precision="FP32">
					<dim>-1</dim>
					<dim>577</dim>
					<dim>768</dim>
				</port>
				<port id="1" precision="FP32">
					<dim>768</dim>
					<dim>768</dim>
				</port>
			</input>
			<output>
				<port id="2" precision="FP32" names="/vision_model/encoder/layers.0/self_attn/projection/MatMul_output_0">
					<dim>-1</dim>
					<dim>577</dim>
					<dim>768</dim>
				</port>
			</output>
		</layer>
		<layer id="172" name="/vision_model/encoder/layers.0/self_attn/projection/Add" type="Add" version="opset1">
			<data auto_broadcast="numpy" />
			<input>
				<port id="0" precision="FP32">
					<dim>1</dim>
					<dim>1</dim>
					<dim>768</dim>
				</port>
				<port id="1" precision="FP32">
					<dim>-1</dim>
					<dim>577</dim>
					<dim>768</dim>
				</port>
			</input>
			<output>
				<port id="2" precision="FP32" names="/vision_model/encoder/layers.0/self_attn/projection/Add_output_0">
					<dim>-1</dim>
					<dim>577</dim>
					<dim>768</dim>
				</port>
			</output>
		</layer>
		<layer id="173" name="/vision_model/encoder/layers.0/Add" type="Add" version="opset1">
			<data auto_broadcast="numpy" />
			<input>
				<port id="0" precision="FP32">
					<dim>-1</dim>
					<dim>577</dim>
					<dim>768</dim>
				</port>
				<port id="1" precision="FP32">
					<dim>-1</dim>
					<dim>577</dim>
					<dim>768</dim>
				</port>
			</input>
			<output>
				<port id="2" precision="FP32" names="/vision_model/encoder/layers.0/Add_output_0">
					<dim>-1</dim>
					<dim>577</dim>
					<dim>768</dim>
				</port>
			</output>
		</layer>
		<layer id="174" name="Constant_674" type="Const" version="opset1">
			<data element_type="i64" shape="1" offset="1348624" size="8" />
			<output>
				<port id="0" precision="I64">
					<dim>1</dim>
				</port>
			</output>
		</layer>
		<layer id="175" name="/vision_model/encoder/layers.0/layer_norm2/Div" type="MVN" version="opset6">
			<data eps="9.9999997473787516e-06" normalize_variance="true" eps_mode="INSIDE_SQRT" />
			<input>
				<port id="0" precision="FP32">
					<dim>-1</dim>
					<dim>577</dim>
					<dim>768</dim>
				</port>
				<port id="1" precision="I64">
					<dim>1</dim>
				</port>
			</input>
			<output>
				<port id="2" precision="FP32" names="/vision_model/encoder/layers.0/layer_norm2/Div_output_0">
					<dim>-1</dim>
					<dim>577</dim>
					<dim>768</dim>
				</port>
			</output>
		</layer>
		<layer id="176" name="Constant_17415_compressed" type="Const" version="opset1">
			<data element_type="f16" shape="1, 1, 768" offset="6956810" size="1536" />
			<output>
				<port id="0" precision="FP16">
					<dim>1</dim>
					<dim>1</dim>
					<dim>768</dim>
				</port>
			</output>
		</layer>
		<layer id="177" name="Constant_17415" type="Convert" version="opset1">
			<data destination_type="f32" />
			<rt_info>
				<attribute name="decompression" version="0" />
			</rt_info>
			<input>
				<port id="0" precision="FP16">
					<dim>1</dim>
					<dim>1</dim>
					<dim>768</dim>
				</port>
			</input>
			<output>
				<port id="1" precision="FP32">
					<dim>1</dim>
					<dim>1</dim>
					<dim>768</dim>
				</port>
			</output>
		</layer>
		<layer id="178" name="/vision_model/encoder/layers.0/layer_norm2/Mul" type="Multiply" version="opset1">
			<data auto_broadcast="numpy" />
			<input>
				<port id="0" precision="FP32">
					<dim>-1</dim>
					<dim>577</dim>
					<dim>768</dim>
				</port>
				<port id="1" precision="FP32">
					<dim>1</dim>
					<dim>1</dim>
					<dim>768</dim>
				</port>
			</input>
			<output>
				<port id="2" precision="FP32" names="/vision_model/encoder/layers.0/layer_norm2/Mul_output_0">
					<dim>-1</dim>
					<dim>577</dim>
					<dim>768</dim>
				</port>
			</output>
		</layer>
		<layer id="179" name="Constant_17416_compressed" type="Const" version="opset1">
			<data element_type="f16" shape="1, 1, 768" offset="6958346" size="1536" />
			<output>
				<port id="0" precision="FP16">
					<dim>1</dim>
					<dim>1</dim>
					<dim>768</dim>
				</port>
			</output>
		</layer>
		<layer id="180" name="Constant_17416" type="Convert" version="opset1">
			<data destination_type="f32" />
			<rt_info>
				<attribute name="decompression" version="0" />
			</rt_info>
			<input>
				<port id="0" precision="FP16">
					<dim>1</dim>
					<dim>1</dim>
					<dim>768</dim>
				</port>
			</input>
			<output>
				<port id="1" precision="FP32">
					<dim>1</dim>
					<dim>1</dim>
					<dim>768</dim>
				</port>
			</output>
		</layer>
		<layer id="181" name="/vision_model/encoder/layers.0/layer_norm2/Add_1" type="Add" version="opset1">
			<data auto_broadcast="numpy" />
			<input>
				<port id="0" precision="FP32">
					<dim>-1</dim>
					<dim>577</dim>
					<dim>768</dim>
				</port>
				<port id="1" precision="FP32">
					<dim>1</dim>
					<dim>1</dim>
					<dim>768</dim>
				</port>
			</input>
			<output>
				<port id="2" precision="FP32" names="/vision_model/encoder/layers.0/layer_norm2/Add_1_output_0">
					<dim>-1</dim>
					<dim>577</dim>
					<dim>768</dim>
				</port>
			</output>
		</layer>
		<layer id="182" name="Transpose_14797_compressed" type="Const" version="opset1">
			<data element_type="f16" shape="3072, 768" offset="6959882" size="4718592" />
			<output>
				<port id="0" precision="FP16">
					<dim>3072</dim>
					<dim>768</dim>
				</port>
			</output>
		</layer>
		<layer id="183" name="Transpose_14797" type="Convert" version="opset1">
			<data destination_type="f32" />
			<rt_info>
				<attribute name="decompression" version="0" />
			</rt_info>
			<input>
				<port id="0" precision="FP16">
					<dim>3072</dim>
					<dim>768</dim>
				</port>
			</input>
			<output>
				<port id="1" precision="FP32">
					<dim>3072</dim>
					<dim>768</dim>
				</port>
			</output>
		</layer>
		<layer id="184" name="/vision_model/encoder/layers.0/mlp/fc1/MatMul" type="MatMul" version="opset1">
			<data transpose_a="false" transpose_b="true" />
			<input>
				<port id="0" precision="FP32">
					<dim>-1</dim>
					<dim>577</dim>
					<dim>768</dim>
				</port>
				<port id="1" precision="FP32">
					<dim>3072</dim>
					<dim>768</dim>
				</port>
			</input>
			<output>
				<port id="2" precision="FP32" names="/vision_model/encoder/layers.0/mlp/fc1/MatMul_output_0">
					<dim>-1</dim>
					<dim>577</dim>
					<dim>3072</dim>
				</port>
			</output>
		</layer>
		<layer id="185" name="/vision_model/encoder/layers.0/mlp/fc1/Add" type="Add" version="opset1">
			<data auto_broadcast="numpy" />
			<input>
				<port id="0" precision="FP32">
					<dim>1</dim>
					<dim>1</dim>
					<dim>3072</dim>
				</port>
				<port id="1" precision="FP32">
					<dim>-1</dim>
					<dim>577</dim>
					<dim>3072</dim>
				</port>
			</input>
			<output>
				<port id="2" precision="FP32" names="/vision_model/encoder/layers.0/mlp/fc1/Add_output_0">
					<dim>-1</dim>
					<dim>577</dim>
					<dim>3072</dim>
				</port>
			</output>
		</layer>
		<layer id="186" name="/vision_model/encoder/layers.0/mlp/activation_fn/Mul_1" type="Gelu" version="opset7">
			<data approximation_mode="ERF" />
			<input>
				<port id="0" precision="FP32">
					<dim>-1</dim>
					<dim>577</dim>
					<dim>3072</dim>
				</port>
			</input>
			<output>
				<port id="1" precision="FP32" names="/vision_model/encoder/layers.0/mlp/activation_fn/Mul_1_output_0">
					<dim>-1</dim>
					<dim>577</dim>
					<dim>3072</dim>
				</port>
			</output>
		</layer>
		<layer id="187" name="Transpose_14809_compressed" type="Const" version="opset1">
			<data element_type="f16" shape="768, 3072" offset="11678474" size="4718592" />
			<output>
				<port id="0" precision="FP16">
					<dim>768</dim>
					<dim>3072</dim>
				</port>
			</output>
		</layer>
		<layer id="188" name="Transpose_14809" type="Convert" version="opset1">
			<data destination_type="f32" />
			<rt_info>
				<attribute name="decompression" version="0" />
			</rt_info>
			<input>
				<port id="0" precision="FP16">
					<dim>768</dim>
					<dim>3072</dim>
				</port>
			</input>
			<output>
				<port id="1" precision="FP32">
					<dim>768</dim>
					<dim>3072</dim>
				</port>
			</output>
		</layer>
		<layer id="189" name="/vision_model/encoder/layers.0/mlp/fc2/MatMul" type="MatMul" version="opset1">
			<data transpose_a="false" transpose_b="true" />
			<input>
				<port id="0" precision="FP32">
					<dim>-1</dim>
					<dim>577</dim>
					<dim>3072</dim>
				</port>
				<port id="1" precision="FP32">
					<dim>768</dim>
					<dim>3072</dim>
				</port>
			</input>
			<output>
				<port id="2" precision="FP32" names="/vision_model/encoder/layers.0/mlp/fc2/MatMul_output_0">
					<dim>-1</dim>
					<dim>577</dim>
					<dim>768</dim>
				</port>
			</output>
		</layer>
		<layer id="190" name="/vision_model/encoder/layers.0/mlp/fc2/Add" type="Add" version="opset1">
			<data auto_broadcast="numpy" />
			<input>
				<port id="0" precision="FP32">
					<dim>1</dim>
					<dim>1</dim>
					<dim>768</dim>
				</port>
				<port id="1" precision="FP32">
					<dim>-1</dim>
					<dim>577</dim>
					<dim>768</dim>
				</port>
			</input>
			<output>
				<port id="2" precision="FP32" names="/vision_model/encoder/layers.0/mlp/fc2/Add_output_0">
					<dim>-1</dim>
					<dim>577</dim>
					<dim>768</dim>
				</port>
			</output>
		</layer>
		<layer id="191" name="/vision_model/encoder/layers.0/Add_1" type="Add" version="opset1">
			<data auto_broadcast="numpy" />
			<input>
				<port id="0" precision="FP32">
					<dim>-1</dim>
					<dim>577</dim>
					<dim>768</dim>
				</port>
				<port id="1" precision="FP32">
					<dim>-1</dim>
					<dim>577</dim>
					<dim>768</dim>
				</port>
			</input>
			<output>
				<port id="2" precision="FP32" names="/vision_model/encoder/layers.0/Add_1_output_0">
					<dim>-1</dim>
					<dim>577</dim>
					<dim>768</dim>
				</port>
			</output>
		</layer>
		<layer id="192" name="Constant_700" type="Const" version="opset1">
			<data element_type="i64" shape="1" offset="1348624" size="8" />
			<output>
				<port id="0" precision="I64">
					<dim>1</dim>
				</port>
			</output>
		</layer>
		<layer id="193" name="/vision_model/encoder/layers.1/layer_norm1/Div" type="MVN" version="opset6">
			<data eps="9.9999997473787516e-06" normalize_variance="true" eps_mode="INSIDE_SQRT" />
			<input>
				<port id="0" precision="FP32">
					<dim>-1</dim>
					<dim>577</dim>
					<dim>768</dim>
				</port>
				<port id="1" precision="I64">
					<dim>1</dim>
				</port>
			</input>
			<output>
				<port id="2" precision="FP32" names="/vision_model/encoder/layers.1/layer_norm1/Div_output_0">
					<dim>-1</dim>
					<dim>577</dim>
					<dim>768</dim>
				</port>
			</output>
		</layer>
		<layer id="194" name="Constant_17419_compressed" type="Const" version="opset1">
			<data element_type="f16" shape="1, 1, 768" offset="16397066" size="1536" />
			<output>
				<port id="0" precision="FP16">
					<dim>1</dim>
					<dim>1</dim>
					<dim>768</dim>
				</port>
			</output>
		</layer>
		<layer id="195" name="Constant_17419" type="Convert" version="opset1">
			<data destination_type="f32" />
			<rt_info>
				<attribute name="decompression" version="0" />
			</rt_info>
			<input>
				<port id="0" precision="FP16">
					<dim>1</dim>
					<dim>1</dim>
					<dim>768</dim>
				</port>
			</input>
			<output>
				<port id="1" precision="FP32">
					<dim>1</dim>
					<dim>1</dim>
					<dim>768</dim>
				</port>
			</output>
		</layer>
		<layer id="196" name="/vision_model/encoder/layers.1/layer_norm1/Mul" type="Multiply" version="opset1">
			<data auto_broadcast="numpy" />
			<input>
				<port id="0" precision="FP32">
					<dim>-1</dim>
					<dim>577</dim>
					<dim>768</dim>
				</port>
				<port id="1" precision="FP32">
					<dim>1</dim>
					<dim>1</dim>
					<dim>768</dim>
				</port>
			</input>
			<output>
				<port id="2" precision="FP32" names="/vision_model/encoder/layers.1/layer_norm1/Mul_output_0">
					<dim>-1</dim>
					<dim>577</dim>
					<dim>768</dim>
				</port>
			</output>
		</layer>
		<layer id="197" name="Constant_17420_compressed" type="Const" version="opset1">
			<data element_type="f16" shape="1, 1, 768" offset="16398602" size="1536" />
			<output>
				<port id="0" precision="FP16">
					<dim>1</dim>
					<dim>1</dim>
					<dim>768</dim>
				</port>
			</output>
		</layer>
		<layer id="198" name="Constant_17420" type="Convert" version="opset1">
			<data destination_type="f32" />
			<rt_info>
				<attribute name="decompression" version="0" />
			</rt_info>
			<input>
				<port id="0" precision="FP16">
					<dim>1</dim>
					<dim>1</dim>
					<dim>768</dim>
				</port>
			</input>
			<output>
				<port id="1" precision="FP32">
					<dim>1</dim>
					<dim>1</dim>
					<dim>768</dim>
				</port>
			</output>
		</layer>
		<layer id="199" name="/vision_model/encoder/layers.1/layer_norm1/Add_1" type="Add" version="opset1">
			<data auto_broadcast="numpy" />
			<input>
				<port id="0" precision="FP32">
					<dim>-1</dim>
					<dim>577</dim>
					<dim>768</dim>
				</port>
				<port id="1" precision="FP32">
					<dim>1</dim>
					<dim>1</dim>
					<dim>768</dim>
				</port>
			</input>
			<output>
				<port id="2" precision="FP32" names="/vision_model/encoder/layers.1/layer_norm1/Add_1_output_0">
					<dim>-1</dim>
					<dim>577</dim>
					<dim>768</dim>
				</port>
			</output>
		</layer>
		<layer id="200" name="Transpose_14827_compressed" type="Const" version="opset1">
			<data element_type="f16" shape="2304, 768" offset="16400138" size="3538944" />
			<output>
				<port id="0" precision="FP16">
					<dim>2304</dim>
					<dim>768</dim>
				</port>
			</output>
		</layer>
		<layer id="201" name="Transpose_14827" type="Convert" version="opset1">
			<data destination_type="f32" />
			<rt_info>
				<attribute name="decompression" version="0" />
			</rt_info>
			<input>
				<port id="0" precision="FP16">
					<dim>2304</dim>
					<dim>768</dim>
				</port>
			</input>
			<output>
				<port id="1" precision="FP32">
					<dim>2304</dim>
					<dim>768</dim>
				</port>
			</output>
		</layer>
		<layer id="202" name="/vision_model/encoder/layers.1/self_attn/qkv/MatMul" type="MatMul" version="opset1">
			<data transpose_a="false" transpose_b="true" />
			<input>
				<port id="0" precision="FP32">
					<dim>-1</dim>
					<dim>577</dim>
					<dim>768</dim>
				</port>
				<port id="1" precision="FP32">
					<dim>2304</dim>
					<dim>768</dim>
				</port>
			</input>
			<output>
				<port id="2" precision="FP32" names="/vision_model/encoder/layers.1/self_attn/qkv/MatMul_output_0">
					<dim>-1</dim>
					<dim>577</dim>
					<dim>2304</dim>
				</port>
			</output>
		</layer>
		<layer id="203" name="/vision_model/encoder/layers.1/self_attn/qkv/Add" type="Add" version="opset1">
			<data auto_broadcast="numpy" />
			<input>
				<port id="0" precision="FP32">
					<dim>1</dim>
					<dim>1</dim>
					<dim>2304</dim>
				</port>
				<port id="1" precision="FP32">
					<dim>-1</dim>
					<dim>577</dim>
					<dim>2304</dim>
				</port>
			</input>
			<output>
				<port id="2" precision="FP32" names="/vision_model/encoder/layers.1/self_attn/qkv/Add_output_0">
					<dim>-1</dim>
					<dim>577</dim>
					<dim>2304</dim>
				</port>
			</output>
		</layer>
		<layer id="204" name="Constant_18553" type="Const" version="opset1">
			<data element_type="i64" shape="5" offset="5777016" size="40" />
			<rt_info>
				<attribute name="precise" version="0" />
			</rt_info>
			<output>
				<port id="0" precision="I64">
					<dim>5</dim>
				</port>
			</output>
		</layer>
		<layer id="205" name="/vision_model/encoder/layers.1/self_attn/Reshape" type="Reshape" version="opset1">
			<data special_zero="true" />
			<input>
				<port id="0" precision="FP32">
					<dim>-1</dim>
					<dim>577</dim>
					<dim>2304</dim>
				</port>
				<port id="1" precision="I64">
					<dim>5</dim>
				</port>
			</input>
			<output>
				<port id="2" precision="FP32" names="/vision_model/encoder/layers.1/self_attn/Reshape_output_0">
					<dim>-1</dim>
					<dim>577</dim>
					<dim>3</dim>
					<dim>12</dim>
					<dim>64</dim>
				</port>
			</output>
		</layer>
		<layer id="206" name="Constant_787" type="Const" version="opset1">
			<data element_type="i64" shape="5" offset="5777056" size="40" />
			<output>
				<port id="0" precision="I64">
					<dim>5</dim>
				</port>
			</output>
		</layer>
		<layer id="207" name="/vision_model/encoder/layers.1/self_attn/Transpose" type="Transpose" version="opset1">
			<input>
				<port id="0" precision="FP32">
					<dim>-1</dim>
					<dim>577</dim>
					<dim>3</dim>
					<dim>12</dim>
					<dim>64</dim>
				</port>
				<port id="1" precision="I64">
					<dim>5</dim>
				</port>
			</input>
			<output>
				<port id="2" precision="FP32" names="/vision_model/encoder/layers.1/self_attn/Transpose_output_0">
					<dim>3</dim>
					<dim>-1</dim>
					<dim>12</dim>
					<dim>577</dim>
					<dim>64</dim>
				</port>
			</output>
		</layer>
		<layer id="208" name="Constant_789" type="Const" version="opset1">
			<data element_type="i64" shape="" offset="1348608" size="8" />
			<output>
				<port id="0" precision="I64" />
			</output>
		</layer>
		<layer id="209" name="/vision_model/encoder/layers.1/self_attn/Gather_3" type="Gather" version="opset8">
			<data batch_dims="0" />
			<input>
				<port id="0" precision="FP32">
					<dim>3</dim>
					<dim>-1</dim>
					<dim>12</dim>
					<dim>577</dim>
					<dim>64</dim>
				</port>
				<port id="1" precision="I64" />
				<port id="2" precision="I64" />
			</input>
			<output>
				<port id="3" precision="FP32" names="/vision_model/encoder/layers.1/self_attn/Gather_3_output_0">
					<dim>-1</dim>
					<dim>12</dim>
					<dim>577</dim>
					<dim>64</dim>
				</port>
			</output>
		</layer>
		<layer id="210" name="Constant_791" type="Const" version="opset1">
			<data element_type="i64" shape="" offset="1348608" size="8" />
			<output>
				<port id="0" precision="I64" />
			</output>
		</layer>
		<layer id="211" name="/vision_model/encoder/layers.1/self_attn/Gather_4" type="Gather" version="opset8">
			<data batch_dims="0" />
			<input>
				<port id="0" precision="FP32">
					<dim>3</dim>
					<dim>-1</dim>
					<dim>12</dim>
					<dim>577</dim>
					<dim>64</dim>
				</port>
				<port id="1" precision="I64" />
				<port id="2" precision="I64" />
			</input>
			<output>
				<port id="3" precision="FP32" names="/vision_model/encoder/layers.1/self_attn/Gather_4_output_0">
					<dim>-1</dim>
					<dim>12</dim>
					<dim>577</dim>
					<dim>64</dim>
				</port>
			</output>
		</layer>
		<layer id="212" name="Constant_17422_compressed" type="Const" version="opset1">
			<data element_type="f16" shape="1, 1, 1, 1" offset="5777096" size="2" />
			<output>
				<port id="0" precision="FP16">
					<dim>1</dim>
					<dim>1</dim>
					<dim>1</dim>
					<dim>1</dim>
				</port>
			</output>
		</layer>
		<layer id="213" name="Constant_17422" type="Convert" version="opset1">
			<data destination_type="f32" />
			<rt_info>
				<attribute name="decompression" version="0" />
			</rt_info>
			<input>
				<port id="0" precision="FP16">
					<dim>1</dim>
					<dim>1</dim>
					<dim>1</dim>
					<dim>1</dim>
				</port>
			</input>
			<output>
				<port id="1" precision="FP32">
					<dim>1</dim>
					<dim>1</dim>
					<dim>1</dim>
					<dim>1</dim>
				</port>
			</output>
		</layer>
		<layer id="214" name="Multiply_16940" type="Multiply" version="opset1">
			<data auto_broadcast="numpy" />
			<input>
				<port id="0" precision="FP32">
					<dim>-1</dim>
					<dim>12</dim>
					<dim>577</dim>
					<dim>64</dim>
				</port>
				<port id="1" precision="FP32">
					<dim>1</dim>
					<dim>1</dim>
					<dim>1</dim>
					<dim>1</dim>
				</port>
			</input>
			<output>
				<port id="2" precision="FP32">
					<dim>-1</dim>
					<dim>12</dim>
					<dim>577</dim>
					<dim>64</dim>
				</port>
			</output>
		</layer>
		<layer id="215" name="/vision_model/encoder/layers.1/self_attn/Mul" type="MatMul" version="opset1">
			<data transpose_a="false" transpose_b="true" />
			<input>
				<port id="0" precision="FP32">
					<dim>-1</dim>
					<dim>12</dim>
					<dim>577</dim>
					<dim>64</dim>
				</port>
				<port id="1" precision="FP32">
					<dim>-1</dim>
					<dim>12</dim>
					<dim>577</dim>
					<dim>64</dim>
				</port>
			</input>
			<output>
				<port id="2" precision="FP32" names="/vision_model/encoder/layers.1/self_attn/Mul_output_0">
					<dim>-1</dim>
					<dim>12</dim>
					<dim>577</dim>
					<dim>577</dim>
				</port>
			</output>
		</layer>
		<layer id="216" name="/vision_model/encoder/layers.1/self_attn/Softmax" type="SoftMax" version="opset8">
			<data axis="-1" />
			<input>
				<port id="0" precision="FP32">
					<dim>-1</dim>
					<dim>12</dim>
					<dim>577</dim>
					<dim>577</dim>
				</port>
			</input>
			<output>
				<port id="1" precision="FP32" names="/vision_model/encoder/layers.1/self_attn/Softmax_output_0">
					<dim>-1</dim>
					<dim>12</dim>
					<dim>577</dim>
					<dim>577</dim>
				</port>
			</output>
		</layer>
		<layer id="217" name="Constant_793" type="Const" version="opset1">
			<data element_type="i64" shape="" offset="1348608" size="8" />
			<output>
				<port id="0" precision="I64" />
			</output>
		</layer>
		<layer id="218" name="/vision_model/encoder/layers.1/self_attn/Gather_5" type="Gather" version="opset8">
			<data batch_dims="0" />
			<input>
				<port id="0" precision="FP32">
					<dim>3</dim>
					<dim>-1</dim>
					<dim>12</dim>
					<dim>577</dim>
					<dim>64</dim>
				</port>
				<port id="1" precision="I64" />
				<port id="2" precision="I64" />
			</input>
			<output>
				<port id="3" precision="FP32" names="/vision_model/encoder/layers.1/self_attn/Gather_5_output_0">
					<dim>-1</dim>
					<dim>12</dim>
					<dim>577</dim>
					<dim>64</dim>
				</port>
			</output>
		</layer>
		<layer id="219" name="/vision_model/encoder/layers.1/self_attn/MatMul_1" type="MatMul" version="opset1">
			<data transpose_a="false" transpose_b="false" />
			<input>
				<port id="0" precision="FP32">
					<dim>-1</dim>
					<dim>12</dim>
					<dim>577</dim>
					<dim>577</dim>
				</port>
				<port id="1" precision="FP32">
					<dim>-1</dim>
					<dim>12</dim>
					<dim>577</dim>
					<dim>64</dim>
				</port>
			</input>
			<output>
				<port id="2" precision="FP32" names="/vision_model/encoder/layers.1/self_attn/MatMul_1_output_0">
					<dim>-1</dim>
					<dim>12</dim>
					<dim>577</dim>
					<dim>64</dim>
				</port>
			</output>
		</layer>
		<layer id="220" name="Constant_802" type="Const" version="opset1">
			<data element_type="i64" shape="4" offset="5777106" size="32" />
			<output>
				<port id="0" precision="I64">
					<dim>4</dim>
				</port>
			</output>
		</layer>
		<layer id="221" name="/vision_model/encoder/layers.1/self_attn/Transpose_2" type="Transpose" version="opset1">
			<input>
				<port id="0" precision="FP32">
					<dim>-1</dim>
					<dim>12</dim>
					<dim>577</dim>
					<dim>64</dim>
				</port>
				<port id="1" precision="I64">
					<dim>4</dim>
				</port>
			</input>
			<output>
				<port id="2" precision="FP32" names="/vision_model/encoder/layers.1/self_attn/Transpose_2_output_0">
					<dim>-1</dim>
					<dim>577</dim>
					<dim>12</dim>
					<dim>64</dim>
				</port>
			</output>
		</layer>
		<layer id="222" name="/vision_model/encoder/layers.1/self_attn/Concat_1" type="Const" version="opset1">
			<data element_type="i64" shape="3" offset="5777138" size="24" />
			<rt_info>
				<attribute name="precise" version="0" />
			</rt_info>
			<output>
				<port id="0" precision="I64">
					<dim>3</dim>
				</port>
			</output>
		</layer>
		<layer id="223" name="/vision_model/encoder/layers.1/self_attn/Reshape_1" type="Reshape" version="opset1">
			<data special_zero="true" />
			<input>
				<port id="0" precision="FP32">
					<dim>-1</dim>
					<dim>577</dim>
					<dim>12</dim>
					<dim>64</dim>
				</port>
				<port id="1" precision="I64">
					<dim>3</dim>
				</port>
			</input>
			<output>
				<port id="2" precision="FP32" names="/vision_model/encoder/layers.1/self_attn/Reshape_1_output_0">
					<dim>-1</dim>
					<dim>577</dim>
					<dim>768</dim>
				</port>
			</output>
		</layer>
		<layer id="224" name="Transpose_14836_compressed" type="Const" version="opset1">
			<data element_type="f16" shape="768, 768" offset="19939082" size="1179648" />
			<output>
				<port id="0" precision="FP16">
					<dim>768</dim>
					<dim>768</dim>
				</port>
			</output>
		</layer>
		<layer id="225" name="Transpose_14836" type="Convert" version="opset1">
			<data destination_type="f32" />
			<rt_info>
				<attribute name="decompression" version="0" />
			</rt_info>
			<input>
				<port id="0" precision="FP16">
					<dim>768</dim>
					<dim>768</dim>
				</port>
			</input>
			<output>
				<port id="1" precision="FP32">
					<dim>768</dim>
					<dim>768</dim>
				</port>
			</output>
		</layer>
		<layer id="226" name="/vision_model/encoder/layers.1/self_attn/projection/MatMul" type="MatMul" version="opset1">
			<data transpose_a="false" transpose_b="true" />
			<input>
				<port id="0" precision="FP32">
					<dim>-1</dim>
					<dim>577</dim>
					<dim>768</dim>
				</port>
				<port id="1" precision="FP32">
					<dim>768</dim>
					<dim>768</dim>
				</port>
			</input>
			<output>
				<port id="2" precision="FP32" names="/vision_model/encoder/layers.1/self_attn/projection/MatMul_output_0">
					<dim>-1</dim>
					<dim>577</dim>
					<dim>768</dim>
				</port>
			</output>
		</layer>
		<layer id="227" name="/vision_model/encoder/layers.1/self_attn/projection/Add" type="Add" version="opset1">
			<data auto_broadcast="numpy" />
			<input>
				<port id="0" precision="FP32">
					<dim>1</dim>
					<dim>1</dim>
					<dim>768</dim>
				</port>
				<port id="1" precision="FP32">
					<dim>-1</dim>
					<dim>577</dim>
					<dim>768</dim>
				</port>
			</input>
			<output>
				<port id="2" precision="FP32" names="/vision_model/encoder/layers.1/self_attn/projection/Add_output_0">
					<dim>-1</dim>
					<dim>577</dim>
					<dim>768</dim>
				</port>
			</output>
		</layer>
		<layer id="228" name="/vision_model/encoder/layers.1/Add" type="Add" version="opset1">
			<data auto_broadcast="numpy" />
			<input>
				<port id="0" precision="FP32">
					<dim>-1</dim>
					<dim>577</dim>
					<dim>768</dim>
				</port>
				<port id="1" precision="FP32">
					<dim>-1</dim>
					<dim>577</dim>
					<dim>768</dim>
				</port>
			</input>
			<output>
				<port id="2" precision="FP32" names="/vision_model/encoder/layers.1/Add_output_0">
					<dim>-1</dim>
					<dim>577</dim>
					<dim>768</dim>
				</port>
			</output>
		</layer>
		<layer id="229" name="Constant_822" type="Const" version="opset1">
			<data element_type="i64" shape="1" offset="1348624" size="8" />
			<output>
				<port id="0" precision="I64">
					<dim>1</dim>
				</port>
			</output>
		</layer>
		<layer id="230" name="/vision_model/encoder/layers.1/layer_norm2/Div" type="MVN" version="opset6">
			<data eps="9.9999997473787516e-06" normalize_variance="true" eps_mode="INSIDE_SQRT" />
			<input>
				<port id="0" precision="FP32">
					<dim>-1</dim>
					<dim>577</dim>
					<dim>768</dim>
				</port>
				<port id="1" precision="I64">
					<dim>1</dim>
				</port>
			</input>
			<output>
				<port id="2" precision="FP32" names="/vision_model/encoder/layers.1/layer_norm2/Div_output_0">
					<dim>-1</dim>
					<dim>577</dim>
					<dim>768</dim>
				</port>
			</output>
		</layer>
		<layer id="231" name="Constant_17424_compressed" type="Const" version="opset1">
			<data element_type="f16" shape="1, 1, 768" offset="21118730" size="1536" />
			<output>
				<port id="0" precision="FP16">
					<dim>1</dim>
					<dim>1</dim>
					<dim>768</dim>
				</port>
			</output>
		</layer>
		<layer id="232" name="Constant_17424" type="Convert" version="opset1">
			<data destination_type="f32" />
			<rt_info>
				<attribute name="decompression" version="0" />
			</rt_info>
			<input>
				<port id="0" precision="FP16">
					<dim>1</dim>
					<dim>1</dim>
					<dim>768</dim>
				</port>
			</input>
			<output>
				<port id="1" precision="FP32">
					<dim>1</dim>
					<dim>1</dim>
					<dim>768</dim>
				</port>
			</output>
		</layer>
		<layer id="233" name="/vision_model/encoder/layers.1/layer_norm2/Mul" type="Multiply" version="opset1">
			<data auto_broadcast="numpy" />
			<input>
				<port id="0" precision="FP32">
					<dim>-1</dim>
					<dim>577</dim>
					<dim>768</dim>
				</port>
				<port id="1" precision="FP32">
					<dim>1</dim>
					<dim>1</dim>
					<dim>768</dim>
				</port>
			</input>
			<output>
				<port id="2" precision="FP32" names="/vision_model/encoder/layers.1/layer_norm2/Mul_output_0">
					<dim>-1</dim>
					<dim>577</dim>
					<dim>768</dim>
				</port>
			</output>
		</layer>
		<layer id="234" name="Constant_17425_compressed" type="Const" version="opset1">
			<data element_type="f16" shape="1, 1, 768" offset="21120266" size="1536" />
			<output>
				<port id="0" precision="FP16">
					<dim>1</dim>
					<dim>1</dim>
					<dim>768</dim>
				</port>
			</output>
		</layer>
		<layer id="235" name="Constant_17425" type="Convert" version="opset1">
			<data destination_type="f32" />
			<rt_info>
				<attribute name="decompression" version="0" />
			</rt_info>
			<input>
				<port id="0" precision="FP16">
					<dim>1</dim>
					<dim>1</dim>
					<dim>768</dim>
				</port>
			</input>
			<output>
				<port id="1" precision="FP32">
					<dim>1</dim>
					<dim>1</dim>
					<dim>768</dim>
				</port>
			</output>
		</layer>
		<layer id="236" name="/vision_model/encoder/layers.1/layer_norm2/Add_1" type="Add" version="opset1">
			<data auto_broadcast="numpy" />
			<input>
				<port id="0" precision="FP32">
					<dim>-1</dim>
					<dim>577</dim>
					<dim>768</dim>
				</port>
				<port id="1" precision="FP32">
					<dim>1</dim>
					<dim>1</dim>
					<dim>768</dim>
				</port>
			</input>
			<output>
				<port id="2" precision="FP32" names="/vision_model/encoder/layers.1/layer_norm2/Add_1_output_0">
					<dim>-1</dim>
					<dim>577</dim>
					<dim>768</dim>
				</port>
			</output>
		</layer>
		<layer id="237" name="Transpose_14854_compressed" type="Const" version="opset1">
			<data element_type="f16" shape="3072, 768" offset="21121802" size="4718592" />
			<output>
				<port id="0" precision="FP16">
					<dim>3072</dim>
					<dim>768</dim>
				</port>
			</output>
		</layer>
		<layer id="238" name="Transpose_14854" type="Convert" version="opset1">
			<data destination_type="f32" />
			<rt_info>
				<attribute name="decompression" version="0" />
			</rt_info>
			<input>
				<port id="0" precision="FP16">
					<dim>3072</dim>
					<dim>768</dim>
				</port>
			</input>
			<output>
				<port id="1" precision="FP32">
					<dim>3072</dim>
					<dim>768</dim>
				</port>
			</output>
		</layer>
		<layer id="239" name="/vision_model/encoder/layers.1/mlp/fc1/MatMul" type="MatMul" version="opset1">
			<data transpose_a="false" transpose_b="true" />
			<input>
				<port id="0" precision="FP32">
					<dim>-1</dim>
					<dim>577</dim>
					<dim>768</dim>
				</port>
				<port id="1" precision="FP32">
					<dim>3072</dim>
					<dim>768</dim>
				</port>
			</input>
			<output>
				<port id="2" precision="FP32" names="/vision_model/encoder/layers.1/mlp/fc1/MatMul_output_0">
					<dim>-1</dim>
					<dim>577</dim>
					<dim>3072</dim>
				</port>
			</output>
		</layer>
		<layer id="240" name="/vision_model/encoder/layers.1/mlp/fc1/Add" type="Add" version="opset1">
			<data auto_broadcast="numpy" />
			<input>
				<port id="0" precision="FP32">
					<dim>1</dim>
					<dim>1</dim>
					<dim>3072</dim>
				</port>
				<port id="1" precision="FP32">
					<dim>-1</dim>
					<dim>577</dim>
					<dim>3072</dim>
				</port>
			</input>
			<output>
				<port id="2" precision="FP32" names="/vision_model/encoder/layers.1/mlp/fc1/Add_output_0">
					<dim>-1</dim>
					<dim>577</dim>
					<dim>3072</dim>
				</port>
			</output>
		</layer>
		<layer id="241" name="/vision_model/encoder/layers.1/mlp/activation_fn/Mul_1" type="Gelu" version="opset7">
			<data approximation_mode="ERF" />
			<input>
				<port id="0" precision="FP32">
					<dim>-1</dim>
					<dim>577</dim>
					<dim>3072</dim>
				</port>
			</input>
			<output>
				<port id="1" precision="FP32" names="/vision_model/encoder/layers.1/mlp/activation_fn/Mul_1_output_0">
					<dim>-1</dim>
					<dim>577</dim>
					<dim>3072</dim>
				</port>
			</output>
		</layer>
		<layer id="242" name="Transpose_14866_compressed" type="Const" version="opset1">
			<data element_type="f16" shape="768, 3072" offset="25840394" size="4718592" />
			<output>
				<port id="0" precision="FP16">
					<dim>768</dim>
					<dim>3072</dim>
				</port>
			</output>
		</layer>
		<layer id="243" name="Transpose_14866" type="Convert" version="opset1">
			<data destination_type="f32" />
			<rt_info>
				<attribute name="decompression" version="0" />
			</rt_info>
			<input>
				<port id="0" precision="FP16">
					<dim>768</dim>
					<dim>3072</dim>
				</port>
			</input>
			<output>
				<port id="1" precision="FP32">
					<dim>768</dim>
					<dim>3072</dim>
				</port>
			</output>
		</layer>
		<layer id="244" name="/vision_model/encoder/layers.1/mlp/fc2/MatMul" type="MatMul" version="opset1">
			<data transpose_a="false" transpose_b="true" />
			<input>
				<port id="0" precision="FP32">
					<dim>-1</dim>
					<dim>577</dim>
					<dim>3072</dim>
				</port>
				<port id="1" precision="FP32">
					<dim>768</dim>
					<dim>3072</dim>
				</port>
			</input>
			<output>
				<port id="2" precision="FP32" names="/vision_model/encoder/layers.1/mlp/fc2/MatMul_output_0">
					<dim>-1</dim>
					<dim>577</dim>
					<dim>768</dim>
				</port>
			</output>
		</layer>
		<layer id="245" name="/vision_model/encoder/layers.1/mlp/fc2/Add" type="Add" version="opset1">
			<data auto_broadcast="numpy" />
			<input>
				<port id="0" precision="FP32">
					<dim>1</dim>
					<dim>1</dim>
					<dim>768</dim>
				</port>
				<port id="1" precision="FP32">
					<dim>-1</dim>
					<dim>577</dim>
					<dim>768</dim>
				</port>
			</input>
			<output>
				<port id="2" precision="FP32" names="/vision_model/encoder/layers.1/mlp/fc2/Add_output_0">
					<dim>-1</dim>
					<dim>577</dim>
					<dim>768</dim>
				</port>
			</output>
		</layer>
		<layer id="246" name="/vision_model/encoder/layers.1/Add_1" type="Add" version="opset1">
			<data auto_broadcast="numpy" />
			<input>
				<port id="0" precision="FP32">
					<dim>-1</dim>
					<dim>577</dim>
					<dim>768</dim>
				</port>
				<port id="1" precision="FP32">
					<dim>-1</dim>
					<dim>577</dim>
					<dim>768</dim>
				</port>
			</input>
			<output>
				<port id="2" precision="FP32" names="/vision_model/encoder/layers.1/Add_1_output_0">
					<dim>-1</dim>
					<dim>577</dim>
					<dim>768</dim>
				</port>
			</output>
		</layer>
		<layer id="247" name="Constant_848" type="Const" version="opset1">
			<data element_type="i64" shape="1" offset="1348624" size="8" />
			<output>
				<port id="0" precision="I64">
					<dim>1</dim>
				</port>
			</output>
		</layer>
		<layer id="248" name="/vision_model/encoder/layers.2/layer_norm1/Div" type="MVN" version="opset6">
			<data eps="9.9999997473787516e-06" normalize_variance="true" eps_mode="INSIDE_SQRT" />
			<input>
				<port id="0" precision="FP32">
					<dim>-1</dim>
					<dim>577</dim>
					<dim>768</dim>
				</port>
				<port id="1" precision="I64">
					<dim>1</dim>
				</port>
			</input>
			<output>
				<port id="2" precision="FP32" names="/vision_model/encoder/layers.2/layer_norm1/Div_output_0">
					<dim>-1</dim>
					<dim>577</dim>
					<dim>768</dim>
				</port>
			</output>
		</layer>
		<layer id="249" name="Constant_17428_compressed" type="Const" version="opset1">
			<data element_type="f16" shape="1, 1, 768" offset="30558986" size="1536" />
			<output>
				<port id="0" precision="FP16">
					<dim>1</dim>
					<dim>1</dim>
					<dim>768</dim>
				</port>
			</output>
		</layer>
		<layer id="250" name="Constant_17428" type="Convert" version="opset1">
			<data destination_type="f32" />
			<rt_info>
				<attribute name="decompression" version="0" />
			</rt_info>
			<input>
				<port id="0" precision="FP16">
					<dim>1</dim>
					<dim>1</dim>
					<dim>768</dim>
				</port>
			</input>
			<output>
				<port id="1" precision="FP32">
					<dim>1</dim>
					<dim>1</dim>
					<dim>768</dim>
				</port>
			</output>
		</layer>
		<layer id="251" name="/vision_model/encoder/layers.2/layer_norm1/Mul" type="Multiply" version="opset1">
			<data auto_broadcast="numpy" />
			<input>
				<port id="0" precision="FP32">
					<dim>-1</dim>
					<dim>577</dim>
					<dim>768</dim>
				</port>
				<port id="1" precision="FP32">
					<dim>1</dim>
					<dim>1</dim>
					<dim>768</dim>
				</port>
			</input>
			<output>
				<port id="2" precision="FP32" names="/vision_model/encoder/layers.2/layer_norm1/Mul_output_0">
					<dim>-1</dim>
					<dim>577</dim>
					<dim>768</dim>
				</port>
			</output>
		</layer>
		<layer id="252" name="Constant_17429_compressed" type="Const" version="opset1">
			<data element_type="f16" shape="1, 1, 768" offset="30560522" size="1536" />
			<output>
				<port id="0" precision="FP16">
					<dim>1</dim>
					<dim>1</dim>
					<dim>768</dim>
				</port>
			</output>
		</layer>
		<layer id="253" name="Constant_17429" type="Convert" version="opset1">
			<data destination_type="f32" />
			<rt_info>
				<attribute name="decompression" version="0" />
			</rt_info>
			<input>
				<port id="0" precision="FP16">
					<dim>1</dim>
					<dim>1</dim>
					<dim>768</dim>
				</port>
			</input>
			<output>
				<port id="1" precision="FP32">
					<dim>1</dim>
					<dim>1</dim>
					<dim>768</dim>
				</port>
			</output>
		</layer>
		<layer id="254" name="/vision_model/encoder/layers.2/layer_norm1/Add_1" type="Add" version="opset1">
			<data auto_broadcast="numpy" />
			<input>
				<port id="0" precision="FP32">
					<dim>-1</dim>
					<dim>577</dim>
					<dim>768</dim>
				</port>
				<port id="1" precision="FP32">
					<dim>1</dim>
					<dim>1</dim>
					<dim>768</dim>
				</port>
			</input>
			<output>
				<port id="2" precision="FP32" names="/vision_model/encoder/layers.2/layer_norm1/Add_1_output_0">
					<dim>-1</dim>
					<dim>577</dim>
					<dim>768</dim>
				</port>
			</output>
		</layer>
		<layer id="255" name="Transpose_14884_compressed" type="Const" version="opset1">
			<data element_type="f16" shape="2304, 768" offset="30562058" size="3538944" />
			<output>
				<port id="0" precision="FP16">
					<dim>2304</dim>
					<dim>768</dim>
				</port>
			</output>
		</layer>
		<layer id="256" name="Transpose_14884" type="Convert" version="opset1">
			<data destination_type="f32" />
			<rt_info>
				<attribute name="decompression" version="0" />
			</rt_info>
			<input>
				<port id="0" precision="FP16">
					<dim>2304</dim>
					<dim>768</dim>
				</port>
			</input>
			<output>
				<port id="1" precision="FP32">
					<dim>2304</dim>
					<dim>768</dim>
				</port>
			</output>
		</layer>
		<layer id="257" name="/vision_model/encoder/layers.2/self_attn/qkv/MatMul" type="MatMul" version="opset1">
			<data transpose_a="false" transpose_b="true" />
			<input>
				<port id="0" precision="FP32">
					<dim>-1</dim>
					<dim>577</dim>
					<dim>768</dim>
				</port>
				<port id="1" precision="FP32">
					<dim>2304</dim>
					<dim>768</dim>
				</port>
			</input>
			<output>
				<port id="2" precision="FP32" names="/vision_model/encoder/layers.2/self_attn/qkv/MatMul_output_0">
					<dim>-1</dim>
					<dim>577</dim>
					<dim>2304</dim>
				</port>
			</output>
		</layer>
		<layer id="258" name="/vision_model/encoder/layers.2/self_attn/qkv/Add" type="Add" version="opset1">
			<data auto_broadcast="numpy" />
			<input>
				<port id="0" precision="FP32">
					<dim>1</dim>
					<dim>1</dim>
					<dim>2304</dim>
				</port>
				<port id="1" precision="FP32">
					<dim>-1</dim>
					<dim>577</dim>
					<dim>2304</dim>
				</port>
			</input>
			<output>
				<port id="2" precision="FP32" names="/vision_model/encoder/layers.2/self_attn/qkv/Add_output_0">
					<dim>-1</dim>
					<dim>577</dim>
					<dim>2304</dim>
				</port>
			</output>
		</layer>
		<layer id="259" name="Constant_18554" type="Const" version="opset1">
			<data element_type="i64" shape="5" offset="5777016" size="40" />
			<rt_info>
				<attribute name="precise" version="0" />
			</rt_info>
			<output>
				<port id="0" precision="I64">
					<dim>5</dim>
				</port>
			</output>
		</layer>
		<layer id="260" name="/vision_model/encoder/layers.2/self_attn/Reshape" type="Reshape" version="opset1">
			<data special_zero="true" />
			<input>
				<port id="0" precision="FP32">
					<dim>-1</dim>
					<dim>577</dim>
					<dim>2304</dim>
				</port>
				<port id="1" precision="I64">
					<dim>5</dim>
				</port>
			</input>
			<output>
				<port id="2" precision="FP32" names="/vision_model/encoder/layers.2/self_attn/Reshape_output_0">
					<dim>-1</dim>
					<dim>577</dim>
					<dim>3</dim>
					<dim>12</dim>
					<dim>64</dim>
				</port>
			</output>
		</layer>
		<layer id="261" name="Constant_935" type="Const" version="opset1">
			<data element_type="i64" shape="5" offset="5777056" size="40" />
			<output>
				<port id="0" precision="I64">
					<dim>5</dim>
				</port>
			</output>
		</layer>
		<layer id="262" name="/vision_model/encoder/layers.2/self_attn/Transpose" type="Transpose" version="opset1">
			<input>
				<port id="0" precision="FP32">
					<dim>-1</dim>
					<dim>577</dim>
					<dim>3</dim>
					<dim>12</dim>
					<dim>64</dim>
				</port>
				<port id="1" precision="I64">
					<dim>5</dim>
				</port>
			</input>
			<output>
				<port id="2" precision="FP32" names="/vision_model/encoder/layers.2/self_attn/Transpose_output_0">
					<dim>3</dim>
					<dim>-1</dim>
					<dim>12</dim>
					<dim>577</dim>
					<dim>64</dim>
				</port>
			</output>
		</layer>
		<layer id="263" name="Constant_937" type="Const" version="opset1">
			<data element_type="i64" shape="" offset="1348608" size="8" />
			<output>
				<port id="0" precision="I64" />
			</output>
		</layer>
		<layer id="264" name="/vision_model/encoder/layers.2/self_attn/Gather_3" type="Gather" version="opset8">
			<data batch_dims="0" />
			<input>
				<port id="0" precision="FP32">
					<dim>3</dim>
					<dim>-1</dim>
					<dim>12</dim>
					<dim>577</dim>
					<dim>64</dim>
				</port>
				<port id="1" precision="I64" />
				<port id="2" precision="I64" />
			</input>
			<output>
				<port id="3" precision="FP32" names="/vision_model/encoder/layers.2/self_attn/Gather_3_output_0">
					<dim>-1</dim>
					<dim>12</dim>
					<dim>577</dim>
					<dim>64</dim>
				</port>
			</output>
		</layer>
		<layer id="265" name="Constant_939" type="Const" version="opset1">
			<data element_type="i64" shape="" offset="1348608" size="8" />
			<output>
				<port id="0" precision="I64" />
			</output>
		</layer>
		<layer id="266" name="/vision_model/encoder/layers.2/self_attn/Gather_4" type="Gather" version="opset8">
			<data batch_dims="0" />
			<input>
				<port id="0" precision="FP32">
					<dim>3</dim>
					<dim>-1</dim>
					<dim>12</dim>
					<dim>577</dim>
					<dim>64</dim>
				</port>
				<port id="1" precision="I64" />
				<port id="2" precision="I64" />
			</input>
			<output>
				<port id="3" precision="FP32" names="/vision_model/encoder/layers.2/self_attn/Gather_4_output_0">
					<dim>-1</dim>
					<dim>12</dim>
					<dim>577</dim>
					<dim>64</dim>
				</port>
			</output>
		</layer>
		<layer id="267" name="Constant_17431_compressed" type="Const" version="opset1">
			<data element_type="f16" shape="1, 1, 1, 1" offset="5777096" size="2" />
			<output>
				<port id="0" precision="FP16">
					<dim>1</dim>
					<dim>1</dim>
					<dim>1</dim>
					<dim>1</dim>
				</port>
			</output>
		</layer>
		<layer id="268" name="Constant_17431" type="Convert" version="opset1">
			<data destination_type="f32" />
			<rt_info>
				<attribute name="decompression" version="0" />
			</rt_info>
			<input>
				<port id="0" precision="FP16">
					<dim>1</dim>
					<dim>1</dim>
					<dim>1</dim>
					<dim>1</dim>
				</port>
			</input>
			<output>
				<port id="1" precision="FP32">
					<dim>1</dim>
					<dim>1</dim>
					<dim>1</dim>
					<dim>1</dim>
				</port>
			</output>
		</layer>
		<layer id="269" name="Multiply_16942" type="Multiply" version="opset1">
			<data auto_broadcast="numpy" />
			<input>
				<port id="0" precision="FP32">
					<dim>-1</dim>
					<dim>12</dim>
					<dim>577</dim>
					<dim>64</dim>
				</port>
				<port id="1" precision="FP32">
					<dim>1</dim>
					<dim>1</dim>
					<dim>1</dim>
					<dim>1</dim>
				</port>
			</input>
			<output>
				<port id="2" precision="FP32">
					<dim>-1</dim>
					<dim>12</dim>
					<dim>577</dim>
					<dim>64</dim>
				</port>
			</output>
		</layer>
		<layer id="270" name="/vision_model/encoder/layers.2/self_attn/Mul" type="MatMul" version="opset1">
			<data transpose_a="false" transpose_b="true" />
			<input>
				<port id="0" precision="FP32">
					<dim>-1</dim>
					<dim>12</dim>
					<dim>577</dim>
					<dim>64</dim>
				</port>
				<port id="1" precision="FP32">
					<dim>-1</dim>
					<dim>12</dim>
					<dim>577</dim>
					<dim>64</dim>
				</port>
			</input>
			<output>
				<port id="2" precision="FP32" names="/vision_model/encoder/layers.2/self_attn/Mul_output_0">
					<dim>-1</dim>
					<dim>12</dim>
					<dim>577</dim>
					<dim>577</dim>
				</port>
			</output>
		</layer>
		<layer id="271" name="/vision_model/encoder/layers.2/self_attn/Softmax" type="SoftMax" version="opset8">
			<data axis="-1" />
			<input>
				<port id="0" precision="FP32">
					<dim>-1</dim>
					<dim>12</dim>
					<dim>577</dim>
					<dim>577</dim>
				</port>
			</input>
			<output>
				<port id="1" precision="FP32" names="/vision_model/encoder/layers.2/self_attn/Softmax_output_0">
					<dim>-1</dim>
					<dim>12</dim>
					<dim>577</dim>
					<dim>577</dim>
				</port>
			</output>
		</layer>
		<layer id="272" name="Constant_941" type="Const" version="opset1">
			<data element_type="i64" shape="" offset="1348608" size="8" />
			<output>
				<port id="0" precision="I64" />
			</output>
		</layer>
		<layer id="273" name="/vision_model/encoder/layers.2/self_attn/Gather_5" type="Gather" version="opset8">
			<data batch_dims="0" />
			<input>
				<port id="0" precision="FP32">
					<dim>3</dim>
					<dim>-1</dim>
					<dim>12</dim>
					<dim>577</dim>
					<dim>64</dim>
				</port>
				<port id="1" precision="I64" />
				<port id="2" precision="I64" />
			</input>
			<output>
				<port id="3" precision="FP32" names="/vision_model/encoder/layers.2/self_attn/Gather_5_output_0">
					<dim>-1</dim>
					<dim>12</dim>
					<dim>577</dim>
					<dim>64</dim>
				</port>
			</output>
		</layer>
		<layer id="274" name="/vision_model/encoder/layers.2/self_attn/MatMul_1" type="MatMul" version="opset1">
			<data transpose_a="false" transpose_b="false" />
			<input>
				<port id="0" precision="FP32">
					<dim>-1</dim>
					<dim>12</dim>
					<dim>577</dim>
					<dim>577</dim>
				</port>
				<port id="1" precision="FP32">
					<dim>-1</dim>
					<dim>12</dim>
					<dim>577</dim>
					<dim>64</dim>
				</port>
			</input>
			<output>
				<port id="2" precision="FP32" names="/vision_model/encoder/layers.2/self_attn/MatMul_1_output_0">
					<dim>-1</dim>
					<dim>12</dim>
					<dim>577</dim>
					<dim>64</dim>
				</port>
			</output>
		</layer>
		<layer id="275" name="Constant_950" type="Const" version="opset1">
			<data element_type="i64" shape="4" offset="5777106" size="32" />
			<output>
				<port id="0" precision="I64">
					<dim>4</dim>
				</port>
			</output>
		</layer>
		<layer id="276" name="/vision_model/encoder/layers.2/self_attn/Transpose_2" type="Transpose" version="opset1">
			<input>
				<port id="0" precision="FP32">
					<dim>-1</dim>
					<dim>12</dim>
					<dim>577</dim>
					<dim>64</dim>
				</port>
				<port id="1" precision="I64">
					<dim>4</dim>
				</port>
			</input>
			<output>
				<port id="2" precision="FP32" names="/vision_model/encoder/layers.2/self_attn/Transpose_2_output_0">
					<dim>-1</dim>
					<dim>577</dim>
					<dim>12</dim>
					<dim>64</dim>
				</port>
			</output>
		</layer>
		<layer id="277" name="/vision_model/encoder/layers.2/self_attn/Concat_1" type="Const" version="opset1">
			<data element_type="i64" shape="3" offset="5777138" size="24" />
			<rt_info>
				<attribute name="precise" version="0" />
			</rt_info>
			<output>
				<port id="0" precision="I64">
					<dim>3</dim>
				</port>
			</output>
		</layer>
		<layer id="278" name="/vision_model/encoder/layers.2/self_attn/Reshape_1" type="Reshape" version="opset1">
			<data special_zero="true" />
			<input>
				<port id="0" precision="FP32">
					<dim>-1</dim>
					<dim>577</dim>
					<dim>12</dim>
					<dim>64</dim>
				</port>
				<port id="1" precision="I64">
					<dim>3</dim>
				</port>
			</input>
			<output>
				<port id="2" precision="FP32" names="/vision_model/encoder/layers.2/self_attn/Reshape_1_output_0">
					<dim>-1</dim>
					<dim>577</dim>
					<dim>768</dim>
				</port>
			</output>
		</layer>
		<layer id="279" name="Transpose_14893_compressed" type="Const" version="opset1">
			<data element_type="f16" shape="768, 768" offset="34101002" size="1179648" />
			<output>
				<port id="0" precision="FP16">
					<dim>768</dim>
					<dim>768</dim>
				</port>
			</output>
		</layer>
		<layer id="280" name="Transpose_14893" type="Convert" version="opset1">
			<data destination_type="f32" />
			<rt_info>
				<attribute name="decompression" version="0" />
			</rt_info>
			<input>
				<port id="0" precision="FP16">
					<dim>768</dim>
					<dim>768</dim>
				</port>
			</input>
			<output>
				<port id="1" precision="FP32">
					<dim>768</dim>
					<dim>768</dim>
				</port>
			</output>
		</layer>
		<layer id="281" name="/vision_model/encoder/layers.2/self_attn/projection/MatMul" type="MatMul" version="opset1">
			<data transpose_a="false" transpose_b="true" />
			<input>
				<port id="0" precision="FP32">
					<dim>-1</dim>
					<dim>577</dim>
					<dim>768</dim>
				</port>
				<port id="1" precision="FP32">
					<dim>768</dim>
					<dim>768</dim>
				</port>
			</input>
			<output>
				<port id="2" precision="FP32" names="/vision_model/encoder/layers.2/self_attn/projection/MatMul_output_0">
					<dim>-1</dim>
					<dim>577</dim>
					<dim>768</dim>
				</port>
			</output>
		</layer>
		<layer id="282" name="/vision_model/encoder/layers.2/self_attn/projection/Add" type="Add" version="opset1">
			<data auto_broadcast="numpy" />
			<input>
				<port id="0" precision="FP32">
					<dim>1</dim>
					<dim>1</dim>
					<dim>768</dim>
				</port>
				<port id="1" precision="FP32">
					<dim>-1</dim>
					<dim>577</dim>
					<dim>768</dim>
				</port>
			</input>
			<output>
				<port id="2" precision="FP32" names="/vision_model/encoder/layers.2/self_attn/projection/Add_output_0">
					<dim>-1</dim>
					<dim>577</dim>
					<dim>768</dim>
				</port>
			</output>
		</layer>
		<layer id="283" name="/vision_model/encoder/layers.2/Add" type="Add" version="opset1">
			<data auto_broadcast="numpy" />
			<input>
				<port id="0" precision="FP32">
					<dim>-1</dim>
					<dim>577</dim>
					<dim>768</dim>
				</port>
				<port id="1" precision="FP32">
					<dim>-1</dim>
					<dim>577</dim>
					<dim>768</dim>
				</port>
			</input>
			<output>
				<port id="2" precision="FP32" names="/vision_model/encoder/layers.2/Add_output_0">
					<dim>-1</dim>
					<dim>577</dim>
					<dim>768</dim>
				</port>
			</output>
		</layer>
		<layer id="284" name="Constant_970" type="Const" version="opset1">
			<data element_type="i64" shape="1" offset="1348624" size="8" />
			<output>
				<port id="0" precision="I64">
					<dim>1</dim>
				</port>
			</output>
		</layer>
		<layer id="285" name="/vision_model/encoder/layers.2/layer_norm2/Div" type="MVN" version="opset6">
			<data eps="9.9999997473787516e-06" normalize_variance="true" eps_mode="INSIDE_SQRT" />
			<input>
				<port id="0" precision="FP32">
					<dim>-1</dim>
					<dim>577</dim>
					<dim>768</dim>
				</port>
				<port id="1" precision="I64">
					<dim>1</dim>
				</port>
			</input>
			<output>
				<port id="2" precision="FP32" names="/vision_model/encoder/layers.2/layer_norm2/Div_output_0">
					<dim>-1</dim>
					<dim>577</dim>
					<dim>768</dim>
				</port>
			</output>
		</layer>
		<layer id="286" name="Constant_17433_compressed" type="Const" version="opset1">
			<data element_type="f16" shape="1, 1, 768" offset="35280650" size="1536" />
			<output>
				<port id="0" precision="FP16">
					<dim>1</dim>
					<dim>1</dim>
					<dim>768</dim>
				</port>
			</output>
		</layer>
		<layer id="287" name="Constant_17433" type="Convert" version="opset1">
			<data destination_type="f32" />
			<rt_info>
				<attribute name="decompression" version="0" />
			</rt_info>
			<input>
				<port id="0" precision="FP16">
					<dim>1</dim>
					<dim>1</dim>
					<dim>768</dim>
				</port>
			</input>
			<output>
				<port id="1" precision="FP32">
					<dim>1</dim>
					<dim>1</dim>
					<dim>768</dim>
				</port>
			</output>
		</layer>
		<layer id="288" name="/vision_model/encoder/layers.2/layer_norm2/Mul" type="Multiply" version="opset1">
			<data auto_broadcast="numpy" />
			<input>
				<port id="0" precision="FP32">
					<dim>-1</dim>
					<dim>577</dim>
					<dim>768</dim>
				</port>
				<port id="1" precision="FP32">
					<dim>1</dim>
					<dim>1</dim>
					<dim>768</dim>
				</port>
			</input>
			<output>
				<port id="2" precision="FP32" names="/vision_model/encoder/layers.2/layer_norm2/Mul_output_0">
					<dim>-1</dim>
					<dim>577</dim>
					<dim>768</dim>
				</port>
			</output>
		</layer>
		<layer id="289" name="Constant_17434_compressed" type="Const" version="opset1">
			<data element_type="f16" shape="1, 1, 768" offset="35282186" size="1536" />
			<output>
				<port id="0" precision="FP16">
					<dim>1</dim>
					<dim>1</dim>
					<dim>768</dim>
				</port>
			</output>
		</layer>
		<layer id="290" name="Constant_17434" type="Convert" version="opset1">
			<data destination_type="f32" />
			<rt_info>
				<attribute name="decompression" version="0" />
			</rt_info>
			<input>
				<port id="0" precision="FP16">
					<dim>1</dim>
					<dim>1</dim>
					<dim>768</dim>
				</port>
			</input>
			<output>
				<port id="1" precision="FP32">
					<dim>1</dim>
					<dim>1</dim>
					<dim>768</dim>
				</port>
			</output>
		</layer>
		<layer id="291" name="/vision_model/encoder/layers.2/layer_norm2/Add_1" type="Add" version="opset1">
			<data auto_broadcast="numpy" />
			<input>
				<port id="0" precision="FP32">
					<dim>-1</dim>
					<dim>577</dim>
					<dim>768</dim>
				</port>
				<port id="1" precision="FP32">
					<dim>1</dim>
					<dim>1</dim>
					<dim>768</dim>
				</port>
			</input>
			<output>
				<port id="2" precision="FP32" names="/vision_model/encoder/layers.2/layer_norm2/Add_1_output_0">
					<dim>-1</dim>
					<dim>577</dim>
					<dim>768</dim>
				</port>
			</output>
		</layer>
		<layer id="292" name="Transpose_14911_compressed" type="Const" version="opset1">
			<data element_type="f16" shape="3072, 768" offset="35283722" size="4718592" />
			<output>
				<port id="0" precision="FP16">
					<dim>3072</dim>
					<dim>768</dim>
				</port>
			</output>
		</layer>
		<layer id="293" name="Transpose_14911" type="Convert" version="opset1">
			<data destination_type="f32" />
			<rt_info>
				<attribute name="decompression" version="0" />
			</rt_info>
			<input>
				<port id="0" precision="FP16">
					<dim>3072</dim>
					<dim>768</dim>
				</port>
			</input>
			<output>
				<port id="1" precision="FP32">
					<dim>3072</dim>
					<dim>768</dim>
				</port>
			</output>
		</layer>
		<layer id="294" name="/vision_model/encoder/layers.2/mlp/fc1/MatMul" type="MatMul" version="opset1">
			<data transpose_a="false" transpose_b="true" />
			<input>
				<port id="0" precision="FP32">
					<dim>-1</dim>
					<dim>577</dim>
					<dim>768</dim>
				</port>
				<port id="1" precision="FP32">
					<dim>3072</dim>
					<dim>768</dim>
				</port>
			</input>
			<output>
				<port id="2" precision="FP32" names="/vision_model/encoder/layers.2/mlp/fc1/MatMul_output_0">
					<dim>-1</dim>
					<dim>577</dim>
					<dim>3072</dim>
				</port>
			</output>
		</layer>
		<layer id="295" name="/vision_model/encoder/layers.2/mlp/fc1/Add" type="Add" version="opset1">
			<data auto_broadcast="numpy" />
			<input>
				<port id="0" precision="FP32">
					<dim>1</dim>
					<dim>1</dim>
					<dim>3072</dim>
				</port>
				<port id="1" precision="FP32">
					<dim>-1</dim>
					<dim>577</dim>
					<dim>3072</dim>
				</port>
			</input>
			<output>
				<port id="2" precision="FP32" names="/vision_model/encoder/layers.2/mlp/fc1/Add_output_0">
					<dim>-1</dim>
					<dim>577</dim>
					<dim>3072</dim>
				</port>
			</output>
		</layer>
		<layer id="296" name="/vision_model/encoder/layers.2/mlp/activation_fn/Mul_1" type="Gelu" version="opset7">
			<data approximation_mode="ERF" />
			<input>
				<port id="0" precision="FP32">
					<dim>-1</dim>
					<dim>577</dim>
					<dim>3072</dim>
				</port>
			</input>
			<output>
				<port id="1" precision="FP32" names="/vision_model/encoder/layers.2/mlp/activation_fn/Mul_1_output_0">
					<dim>-1</dim>
					<dim>577</dim>
					<dim>3072</dim>
				</port>
			</output>
		</layer>
		<layer id="297" name="Transpose_14923_compressed" type="Const" version="opset1">
			<data element_type="f16" shape="768, 3072" offset="40002314" size="4718592" />
			<output>
				<port id="0" precision="FP16">
					<dim>768</dim>
					<dim>3072</dim>
				</port>
			</output>
		</layer>
		<layer id="298" name="Transpose_14923" type="Convert" version="opset1">
			<data destination_type="f32" />
			<rt_info>
				<attribute name="decompression" version="0" />
			</rt_info>
			<input>
				<port id="0" precision="FP16">
					<dim>768</dim>
					<dim>3072</dim>
				</port>
			</input>
			<output>
				<port id="1" precision="FP32">
					<dim>768</dim>
					<dim>3072</dim>
				</port>
			</output>
		</layer>
		<layer id="299" name="/vision_model/encoder/layers.2/mlp/fc2/MatMul" type="MatMul" version="opset1">
			<data transpose_a="false" transpose_b="true" />
			<input>
				<port id="0" precision="FP32">
					<dim>-1</dim>
					<dim>577</dim>
					<dim>3072</dim>
				</port>
				<port id="1" precision="FP32">
					<dim>768</dim>
					<dim>3072</dim>
				</port>
			</input>
			<output>
				<port id="2" precision="FP32" names="/vision_model/encoder/layers.2/mlp/fc2/MatMul_output_0">
					<dim>-1</dim>
					<dim>577</dim>
					<dim>768</dim>
				</port>
			</output>
		</layer>
		<layer id="300" name="/vision_model/encoder/layers.2/mlp/fc2/Add" type="Add" version="opset1">
			<data auto_broadcast="numpy" />
			<input>
				<port id="0" precision="FP32">
					<dim>1</dim>
					<dim>1</dim>
					<dim>768</dim>
				</port>
				<port id="1" precision="FP32">
					<dim>-1</dim>
					<dim>577</dim>
					<dim>768</dim>
				</port>
			</input>
			<output>
				<port id="2" precision="FP32" names="/vision_model/encoder/layers.2/mlp/fc2/Add_output_0">
					<dim>-1</dim>
					<dim>577</dim>
					<dim>768</dim>
				</port>
			</output>
		</layer>
		<layer id="301" name="/vision_model/encoder/layers.2/Add_1" type="Add" version="opset1">
			<data auto_broadcast="numpy" />
			<input>
				<port id="0" precision="FP32">
					<dim>-1</dim>
					<dim>577</dim>
					<dim>768</dim>
				</port>
				<port id="1" precision="FP32">
					<dim>-1</dim>
					<dim>577</dim>
					<dim>768</dim>
				</port>
			</input>
			<output>
				<port id="2" precision="FP32" names="/vision_model/encoder/layers.2/Add_1_output_0">
					<dim>-1</dim>
					<dim>577</dim>
					<dim>768</dim>
				</port>
			</output>
		</layer>
		<layer id="302" name="Constant_996" type="Const" version="opset1">
			<data element_type="i64" shape="1" offset="1348624" size="8" />
			<output>
				<port id="0" precision="I64">
					<dim>1</dim>
				</port>
			</output>
		</layer>
		<layer id="303" name="/vision_model/encoder/layers.3/layer_norm1/Div" type="MVN" version="opset6">
			<data eps="9.9999997473787516e-06" normalize_variance="true" eps_mode="INSIDE_SQRT" />
			<input>
				<port id="0" precision="FP32">
					<dim>-1</dim>
					<dim>577</dim>
					<dim>768</dim>
				</port>
				<port id="1" precision="I64">
					<dim>1</dim>
				</port>
			</input>
			<output>
				<port id="2" precision="FP32" names="/vision_model/encoder/layers.3/layer_norm1/Div_output_0">
					<dim>-1</dim>
					<dim>577</dim>
					<dim>768</dim>
				</port>
			</output>
		</layer>
		<layer id="304" name="Constant_17437_compressed" type="Const" version="opset1">
			<data element_type="f16" shape="1, 1, 768" offset="44720906" size="1536" />
			<output>
				<port id="0" precision="FP16">
					<dim>1</dim>
					<dim>1</dim>
					<dim>768</dim>
				</port>
			</output>
		</layer>
		<layer id="305" name="Constant_17437" type="Convert" version="opset1">
			<data destination_type="f32" />
			<rt_info>
				<attribute name="decompression" version="0" />
			</rt_info>
			<input>
				<port id="0" precision="FP16">
					<dim>1</dim>
					<dim>1</dim>
					<dim>768</dim>
				</port>
			</input>
			<output>
				<port id="1" precision="FP32">
					<dim>1</dim>
					<dim>1</dim>
					<dim>768</dim>
				</port>
			</output>
		</layer>
		<layer id="306" name="/vision_model/encoder/layers.3/layer_norm1/Mul" type="Multiply" version="opset1">
			<data auto_broadcast="numpy" />
			<input>
				<port id="0" precision="FP32">
					<dim>-1</dim>
					<dim>577</dim>
					<dim>768</dim>
				</port>
				<port id="1" precision="FP32">
					<dim>1</dim>
					<dim>1</dim>
					<dim>768</dim>
				</port>
			</input>
			<output>
				<port id="2" precision="FP32" names="/vision_model/encoder/layers.3/layer_norm1/Mul_output_0">
					<dim>-1</dim>
					<dim>577</dim>
					<dim>768</dim>
				</port>
			</output>
		</layer>
		<layer id="307" name="Constant_17438_compressed" type="Const" version="opset1">
			<data element_type="f16" shape="1, 1, 768" offset="44722442" size="1536" />
			<output>
				<port id="0" precision="FP16">
					<dim>1</dim>
					<dim>1</dim>
					<dim>768</dim>
				</port>
			</output>
		</layer>
		<layer id="308" name="Constant_17438" type="Convert" version="opset1">
			<data destination_type="f32" />
			<rt_info>
				<attribute name="decompression" version="0" />
			</rt_info>
			<input>
				<port id="0" precision="FP16">
					<dim>1</dim>
					<dim>1</dim>
					<dim>768</dim>
				</port>
			</input>
			<output>
				<port id="1" precision="FP32">
					<dim>1</dim>
					<dim>1</dim>
					<dim>768</dim>
				</port>
			</output>
		</layer>
		<layer id="309" name="/vision_model/encoder/layers.3/layer_norm1/Add_1" type="Add" version="opset1">
			<data auto_broadcast="numpy" />
			<input>
				<port id="0" precision="FP32">
					<dim>-1</dim>
					<dim>577</dim>
					<dim>768</dim>
				</port>
				<port id="1" precision="FP32">
					<dim>1</dim>
					<dim>1</dim>
					<dim>768</dim>
				</port>
			</input>
			<output>
				<port id="2" precision="FP32" names="/vision_model/encoder/layers.3/layer_norm1/Add_1_output_0">
					<dim>-1</dim>
					<dim>577</dim>
					<dim>768</dim>
				</port>
			</output>
		</layer>
		<layer id="310" name="Transpose_14941_compressed" type="Const" version="opset1">
			<data element_type="f16" shape="2304, 768" offset="44723978" size="3538944" />
			<output>
				<port id="0" precision="FP16">
					<dim>2304</dim>
					<dim>768</dim>
				</port>
			</output>
		</layer>
		<layer id="311" name="Transpose_14941" type="Convert" version="opset1">
			<data destination_type="f32" />
			<rt_info>
				<attribute name="decompression" version="0" />
			</rt_info>
			<input>
				<port id="0" precision="FP16">
					<dim>2304</dim>
					<dim>768</dim>
				</port>
			</input>
			<output>
				<port id="1" precision="FP32">
					<dim>2304</dim>
					<dim>768</dim>
				</port>
			</output>
		</layer>
		<layer id="312" name="/vision_model/encoder/layers.3/self_attn/qkv/MatMul" type="MatMul" version="opset1">
			<data transpose_a="false" transpose_b="true" />
			<input>
				<port id="0" precision="FP32">
					<dim>-1</dim>
					<dim>577</dim>
					<dim>768</dim>
				</port>
				<port id="1" precision="FP32">
					<dim>2304</dim>
					<dim>768</dim>
				</port>
			</input>
			<output>
				<port id="2" precision="FP32" names="/vision_model/encoder/layers.3/self_attn/qkv/MatMul_output_0">
					<dim>-1</dim>
					<dim>577</dim>
					<dim>2304</dim>
				</port>
			</output>
		</layer>
		<layer id="313" name="/vision_model/encoder/layers.3/self_attn/qkv/Add" type="Add" version="opset1">
			<data auto_broadcast="numpy" />
			<input>
				<port id="0" precision="FP32">
					<dim>1</dim>
					<dim>1</dim>
					<dim>2304</dim>
				</port>
				<port id="1" precision="FP32">
					<dim>-1</dim>
					<dim>577</dim>
					<dim>2304</dim>
				</port>
			</input>
			<output>
				<port id="2" precision="FP32" names="/vision_model/encoder/layers.3/self_attn/qkv/Add_output_0">
					<dim>-1</dim>
					<dim>577</dim>
					<dim>2304</dim>
				</port>
			</output>
		</layer>
		<layer id="314" name="Constant_18555" type="Const" version="opset1">
			<data element_type="i64" shape="5" offset="5777016" size="40" />
			<rt_info>
				<attribute name="precise" version="0" />
			</rt_info>
			<output>
				<port id="0" precision="I64">
					<dim>5</dim>
				</port>
			</output>
		</layer>
		<layer id="315" name="/vision_model/encoder/layers.3/self_attn/Reshape" type="Reshape" version="opset1">
			<data special_zero="true" />
			<input>
				<port id="0" precision="FP32">
					<dim>-1</dim>
					<dim>577</dim>
					<dim>2304</dim>
				</port>
				<port id="1" precision="I64">
					<dim>5</dim>
				</port>
			</input>
			<output>
				<port id="2" precision="FP32" names="/vision_model/encoder/layers.3/self_attn/Reshape_output_0">
					<dim>-1</dim>
					<dim>577</dim>
					<dim>3</dim>
					<dim>12</dim>
					<dim>64</dim>
				</port>
			</output>
		</layer>
		<layer id="316" name="Constant_1083" type="Const" version="opset1">
			<data element_type="i64" shape="5" offset="5777056" size="40" />
			<output>
				<port id="0" precision="I64">
					<dim>5</dim>
				</port>
			</output>
		</layer>
		<layer id="317" name="/vision_model/encoder/layers.3/self_attn/Transpose" type="Transpose" version="opset1">
			<input>
				<port id="0" precision="FP32">
					<dim>-1</dim>
					<dim>577</dim>
					<dim>3</dim>
					<dim>12</dim>
					<dim>64</dim>
				</port>
				<port id="1" precision="I64">
					<dim>5</dim>
				</port>
			</input>
			<output>
				<port id="2" precision="FP32" names="/vision_model/encoder/layers.3/self_attn/Transpose_output_0">
					<dim>3</dim>
					<dim>-1</dim>
					<dim>12</dim>
					<dim>577</dim>
					<dim>64</dim>
				</port>
			</output>
		</layer>
		<layer id="318" name="Constant_1085" type="Const" version="opset1">
			<data element_type="i64" shape="" offset="1348608" size="8" />
			<output>
				<port id="0" precision="I64" />
			</output>
		</layer>
		<layer id="319" name="/vision_model/encoder/layers.3/self_attn/Gather_3" type="Gather" version="opset8">
			<data batch_dims="0" />
			<input>
				<port id="0" precision="FP32">
					<dim>3</dim>
					<dim>-1</dim>
					<dim>12</dim>
					<dim>577</dim>
					<dim>64</dim>
				</port>
				<port id="1" precision="I64" />
				<port id="2" precision="I64" />
			</input>
			<output>
				<port id="3" precision="FP32" names="/vision_model/encoder/layers.3/self_attn/Gather_3_output_0">
					<dim>-1</dim>
					<dim>12</dim>
					<dim>577</dim>
					<dim>64</dim>
				</port>
			</output>
		</layer>
		<layer id="320" name="Constant_1087" type="Const" version="opset1">
			<data element_type="i64" shape="" offset="1348608" size="8" />
			<output>
				<port id="0" precision="I64" />
			</output>
		</layer>
		<layer id="321" name="/vision_model/encoder/layers.3/self_attn/Gather_4" type="Gather" version="opset8">
			<data batch_dims="0" />
			<input>
				<port id="0" precision="FP32">
					<dim>3</dim>
					<dim>-1</dim>
					<dim>12</dim>
					<dim>577</dim>
					<dim>64</dim>
				</port>
				<port id="1" precision="I64" />
				<port id="2" precision="I64" />
			</input>
			<output>
				<port id="3" precision="FP32" names="/vision_model/encoder/layers.3/self_attn/Gather_4_output_0">
					<dim>-1</dim>
					<dim>12</dim>
					<dim>577</dim>
					<dim>64</dim>
				</port>
			</output>
		</layer>
		<layer id="322" name="Constant_17440_compressed" type="Const" version="opset1">
			<data element_type="f16" shape="1, 1, 1, 1" offset="5777096" size="2" />
			<output>
				<port id="0" precision="FP16">
					<dim>1</dim>
					<dim>1</dim>
					<dim>1</dim>
					<dim>1</dim>
				</port>
			</output>
		</layer>
		<layer id="323" name="Constant_17440" type="Convert" version="opset1">
			<data destination_type="f32" />
			<rt_info>
				<attribute name="decompression" version="0" />
			</rt_info>
			<input>
				<port id="0" precision="FP16">
					<dim>1</dim>
					<dim>1</dim>
					<dim>1</dim>
					<dim>1</dim>
				</port>
			</input>
			<output>
				<port id="1" precision="FP32">
					<dim>1</dim>
					<dim>1</dim>
					<dim>1</dim>
					<dim>1</dim>
				</port>
			</output>
		</layer>
		<layer id="324" name="Multiply_16944" type="Multiply" version="opset1">
			<data auto_broadcast="numpy" />
			<input>
				<port id="0" precision="FP32">
					<dim>-1</dim>
					<dim>12</dim>
					<dim>577</dim>
					<dim>64</dim>
				</port>
				<port id="1" precision="FP32">
					<dim>1</dim>
					<dim>1</dim>
					<dim>1</dim>
					<dim>1</dim>
				</port>
			</input>
			<output>
				<port id="2" precision="FP32">
					<dim>-1</dim>
					<dim>12</dim>
					<dim>577</dim>
					<dim>64</dim>
				</port>
			</output>
		</layer>
		<layer id="325" name="/vision_model/encoder/layers.3/self_attn/Mul" type="MatMul" version="opset1">
			<data transpose_a="false" transpose_b="true" />
			<input>
				<port id="0" precision="FP32">
					<dim>-1</dim>
					<dim>12</dim>
					<dim>577</dim>
					<dim>64</dim>
				</port>
				<port id="1" precision="FP32">
					<dim>-1</dim>
					<dim>12</dim>
					<dim>577</dim>
					<dim>64</dim>
				</port>
			</input>
			<output>
				<port id="2" precision="FP32" names="/vision_model/encoder/layers.3/self_attn/Mul_output_0">
					<dim>-1</dim>
					<dim>12</dim>
					<dim>577</dim>
					<dim>577</dim>
				</port>
			</output>
		</layer>
		<layer id="326" name="/vision_model/encoder/layers.3/self_attn/Softmax" type="SoftMax" version="opset8">
			<data axis="-1" />
			<input>
				<port id="0" precision="FP32">
					<dim>-1</dim>
					<dim>12</dim>
					<dim>577</dim>
					<dim>577</dim>
				</port>
			</input>
			<output>
				<port id="1" precision="FP32" names="/vision_model/encoder/layers.3/self_attn/Softmax_output_0">
					<dim>-1</dim>
					<dim>12</dim>
					<dim>577</dim>
					<dim>577</dim>
				</port>
			</output>
		</layer>
		<layer id="327" name="Constant_1089" type="Const" version="opset1">
			<data element_type="i64" shape="" offset="1348608" size="8" />
			<output>
				<port id="0" precision="I64" />
			</output>
		</layer>
		<layer id="328" name="/vision_model/encoder/layers.3/self_attn/Gather_5" type="Gather" version="opset8">
			<data batch_dims="0" />
			<input>
				<port id="0" precision="FP32">
					<dim>3</dim>
					<dim>-1</dim>
					<dim>12</dim>
					<dim>577</dim>
					<dim>64</dim>
				</port>
				<port id="1" precision="I64" />
				<port id="2" precision="I64" />
			</input>
			<output>
				<port id="3" precision="FP32" names="/vision_model/encoder/layers.3/self_attn/Gather_5_output_0">
					<dim>-1</dim>
					<dim>12</dim>
					<dim>577</dim>
					<dim>64</dim>
				</port>
			</output>
		</layer>
		<layer id="329" name="/vision_model/encoder/layers.3/self_attn/MatMul_1" type="MatMul" version="opset1">
			<data transpose_a="false" transpose_b="false" />
			<input>
				<port id="0" precision="FP32">
					<dim>-1</dim>
					<dim>12</dim>
					<dim>577</dim>
					<dim>577</dim>
				</port>
				<port id="1" precision="FP32">
					<dim>-1</dim>
					<dim>12</dim>
					<dim>577</dim>
					<dim>64</dim>
				</port>
			</input>
			<output>
				<port id="2" precision="FP32" names="/vision_model/encoder/layers.3/self_attn/MatMul_1_output_0">
					<dim>-1</dim>
					<dim>12</dim>
					<dim>577</dim>
					<dim>64</dim>
				</port>
			</output>
		</layer>
		<layer id="330" name="Constant_1098" type="Const" version="opset1">
			<data element_type="i64" shape="4" offset="5777106" size="32" />
			<output>
				<port id="0" precision="I64">
					<dim>4</dim>
				</port>
			</output>
		</layer>
		<layer id="331" name="/vision_model/encoder/layers.3/self_attn/Transpose_2" type="Transpose" version="opset1">
			<input>
				<port id="0" precision="FP32">
					<dim>-1</dim>
					<dim>12</dim>
					<dim>577</dim>
					<dim>64</dim>
				</port>
				<port id="1" precision="I64">
					<dim>4</dim>
				</port>
			</input>
			<output>
				<port id="2" precision="FP32" names="/vision_model/encoder/layers.3/self_attn/Transpose_2_output_0">
					<dim>-1</dim>
					<dim>577</dim>
					<dim>12</dim>
					<dim>64</dim>
				</port>
			</output>
		</layer>
		<layer id="332" name="/vision_model/encoder/layers.3/self_attn/Concat_1" type="Const" version="opset1">
			<data element_type="i64" shape="3" offset="5777138" size="24" />
			<rt_info>
				<attribute name="precise" version="0" />
			</rt_info>
			<output>
				<port id="0" precision="I64">
					<dim>3</dim>
				</port>
			</output>
		</layer>
		<layer id="333" name="/vision_model/encoder/layers.3/self_attn/Reshape_1" type="Reshape" version="opset1">
			<data special_zero="true" />
			<input>
				<port id="0" precision="FP32">
					<dim>-1</dim>
					<dim>577</dim>
					<dim>12</dim>
					<dim>64</dim>
				</port>
				<port id="1" precision="I64">
					<dim>3</dim>
				</port>
			</input>
			<output>
				<port id="2" precision="FP32" names="/vision_model/encoder/layers.3/self_attn/Reshape_1_output_0">
					<dim>-1</dim>
					<dim>577</dim>
					<dim>768</dim>
				</port>
			</output>
		</layer>
		<layer id="334" name="Transpose_14950_compressed" type="Const" version="opset1">
			<data element_type="f16" shape="768, 768" offset="48262922" size="1179648" />
			<output>
				<port id="0" precision="FP16">
					<dim>768</dim>
					<dim>768</dim>
				</port>
			</output>
		</layer>
		<layer id="335" name="Transpose_14950" type="Convert" version="opset1">
			<data destination_type="f32" />
			<rt_info>
				<attribute name="decompression" version="0" />
			</rt_info>
			<input>
				<port id="0" precision="FP16">
					<dim>768</dim>
					<dim>768</dim>
				</port>
			</input>
			<output>
				<port id="1" precision="FP32">
					<dim>768</dim>
					<dim>768</dim>
				</port>
			</output>
		</layer>
		<layer id="336" name="/vision_model/encoder/layers.3/self_attn/projection/MatMul" type="MatMul" version="opset1">
			<data transpose_a="false" transpose_b="true" />
			<input>
				<port id="0" precision="FP32">
					<dim>-1</dim>
					<dim>577</dim>
					<dim>768</dim>
				</port>
				<port id="1" precision="FP32">
					<dim>768</dim>
					<dim>768</dim>
				</port>
			</input>
			<output>
				<port id="2" precision="FP32" names="/vision_model/encoder/layers.3/self_attn/projection/MatMul_output_0">
					<dim>-1</dim>
					<dim>577</dim>
					<dim>768</dim>
				</port>
			</output>
		</layer>
		<layer id="337" name="/vision_model/encoder/layers.3/self_attn/projection/Add" type="Add" version="opset1">
			<data auto_broadcast="numpy" />
			<input>
				<port id="0" precision="FP32">
					<dim>1</dim>
					<dim>1</dim>
					<dim>768</dim>
				</port>
				<port id="1" precision="FP32">
					<dim>-1</dim>
					<dim>577</dim>
					<dim>768</dim>
				</port>
			</input>
			<output>
				<port id="2" precision="FP32" names="/vision_model/encoder/layers.3/self_attn/projection/Add_output_0">
					<dim>-1</dim>
					<dim>577</dim>
					<dim>768</dim>
				</port>
			</output>
		</layer>
		<layer id="338" name="/vision_model/encoder/layers.3/Add" type="Add" version="opset1">
			<data auto_broadcast="numpy" />
			<input>
				<port id="0" precision="FP32">
					<dim>-1</dim>
					<dim>577</dim>
					<dim>768</dim>
				</port>
				<port id="1" precision="FP32">
					<dim>-1</dim>
					<dim>577</dim>
					<dim>768</dim>
				</port>
			</input>
			<output>
				<port id="2" precision="FP32" names="/vision_model/encoder/layers.3/Add_output_0">
					<dim>-1</dim>
					<dim>577</dim>
					<dim>768</dim>
				</port>
			</output>
		</layer>
		<layer id="339" name="Constant_1118" type="Const" version="opset1">
			<data element_type="i64" shape="1" offset="1348624" size="8" />
			<output>
				<port id="0" precision="I64">
					<dim>1</dim>
				</port>
			</output>
		</layer>
		<layer id="340" name="/vision_model/encoder/layers.3/layer_norm2/Div" type="MVN" version="opset6">
			<data eps="9.9999997473787516e-06" normalize_variance="true" eps_mode="INSIDE_SQRT" />
			<input>
				<port id="0" precision="FP32">
					<dim>-1</dim>
					<dim>577</dim>
					<dim>768</dim>
				</port>
				<port id="1" precision="I64">
					<dim>1</dim>
				</port>
			</input>
			<output>
				<port id="2" precision="FP32" names="/vision_model/encoder/layers.3/layer_norm2/Div_output_0">
					<dim>-1</dim>
					<dim>577</dim>
					<dim>768</dim>
				</port>
			</output>
		</layer>
		<layer id="341" name="Constant_17442_compressed" type="Const" version="opset1">
			<data element_type="f16" shape="1, 1, 768" offset="49442570" size="1536" />
			<output>
				<port id="0" precision="FP16">
					<dim>1</dim>
					<dim>1</dim>
					<dim>768</dim>
				</port>
			</output>
		</layer>
		<layer id="342" name="Constant_17442" type="Convert" version="opset1">
			<data destination_type="f32" />
			<rt_info>
				<attribute name="decompression" version="0" />
			</rt_info>
			<input>
				<port id="0" precision="FP16">
					<dim>1</dim>
					<dim>1</dim>
					<dim>768</dim>
				</port>
			</input>
			<output>
				<port id="1" precision="FP32">
					<dim>1</dim>
					<dim>1</dim>
					<dim>768</dim>
				</port>
			</output>
		</layer>
		<layer id="343" name="/vision_model/encoder/layers.3/layer_norm2/Mul" type="Multiply" version="opset1">
			<data auto_broadcast="numpy" />
			<input>
				<port id="0" precision="FP32">
					<dim>-1</dim>
					<dim>577</dim>
					<dim>768</dim>
				</port>
				<port id="1" precision="FP32">
					<dim>1</dim>
					<dim>1</dim>
					<dim>768</dim>
				</port>
			</input>
			<output>
				<port id="2" precision="FP32" names="/vision_model/encoder/layers.3/layer_norm2/Mul_output_0">
					<dim>-1</dim>
					<dim>577</dim>
					<dim>768</dim>
				</port>
			</output>
		</layer>
		<layer id="344" name="Constant_17443_compressed" type="Const" version="opset1">
			<data element_type="f16" shape="1, 1, 768" offset="49444106" size="1536" />
			<output>
				<port id="0" precision="FP16">
					<dim>1</dim>
					<dim>1</dim>
					<dim>768</dim>
				</port>
			</output>
		</layer>
		<layer id="345" name="Constant_17443" type="Convert" version="opset1">
			<data destination_type="f32" />
			<rt_info>
				<attribute name="decompression" version="0" />
			</rt_info>
			<input>
				<port id="0" precision="FP16">
					<dim>1</dim>
					<dim>1</dim>
					<dim>768</dim>
				</port>
			</input>
			<output>
				<port id="1" precision="FP32">
					<dim>1</dim>
					<dim>1</dim>
					<dim>768</dim>
				</port>
			</output>
		</layer>
		<layer id="346" name="/vision_model/encoder/layers.3/layer_norm2/Add_1" type="Add" version="opset1">
			<data auto_broadcast="numpy" />
			<input>
				<port id="0" precision="FP32">
					<dim>-1</dim>
					<dim>577</dim>
					<dim>768</dim>
				</port>
…
		<edge from-layer="1840" from-port="1" to-layer="1844" to-port="0" />
		<edge from-layer="1841" from-port="0" to-layer="1842" to-port="0" />
		<edge from-layer="1842" from-port="1" to-layer="1843" to-port="1" />
		<edge from-layer="1843" from-port="2" to-layer="1844" to-port="1" />
		<edge from-layer="1844" from-port="2" to-layer="1846" to-port="0" />
		<edge from-layer="1845" from-port="0" to-layer="1846" to-port="1" />
		<edge from-layer="1846" from-port="2" to-layer="1848" to-port="0" />
		<edge from-layer="1847" from-port="0" to-layer="1848" to-port="1" />
		<edge from-layer="1848" from-port="2" to-layer="1849" to-port="1" />
		<edge from-layer="1849" from-port="2" to-layer="1851" to-port="0" />
		<edge from-layer="1850" from-port="0" to-layer="1851" to-port="1" />
		<edge from-layer="1851" from-port="2" to-layer="1853" to-port="0" />
		<edge from-layer="1852" from-port="0" to-layer="1853" to-port="1" />
		<edge from-layer="1853" from-port="2" to-layer="1856" to-port="0" />
		<edge from-layer="1854" from-port="0" to-layer="1855" to-port="0" />
		<edge from-layer="1855" from-port="1" to-layer="1856" to-port="1" />
		<edge from-layer="1856" from-port="2" to-layer="1857" to-port="1" />
		<edge from-layer="1857" from-port="2" to-layer="1858" to-port="0" />
		<edge from-layer="1858" from-port="2" to-layer="1860" to-port="0" />
		<edge from-layer="1859" from-port="0" to-layer="1860" to-port="1" />
		<edge from-layer="1860" from-port="2" to-layer="1863" to-port="0" />
		<edge from-layer="1861" from-port="0" to-layer="1862" to-port="0" />
		<edge from-layer="1862" from-port="1" to-layer="1863" to-port="1" />
		<edge from-layer="1863" from-port="2" to-layer="1866" to-port="0" />
		<edge from-layer="1864" from-port="0" to-layer="1865" to-port="0" />
		<edge from-layer="1865" from-port="1" to-layer="1866" to-port="1" />
		<edge from-layer="1866" from-port="2" to-layer="1876" to-port="1" />
		<edge from-layer="1866" from-port="2" to-layer="1869" to-port="0" />
		<edge from-layer="1867" from-port="0" to-layer="1868" to-port="0" />
		<edge from-layer="1868" from-port="1" to-layer="1869" to-port="1" />
		<edge from-layer="1869" from-port="2" to-layer="1870" to-port="1" />
		<edge from-layer="1870" from-port="2" to-layer="1871" to-port="0" />
		<edge from-layer="1871" from-port="1" to-layer="1874" to-port="0" />
		<edge from-layer="1872" from-port="0" to-layer="1873" to-port="0" />
		<edge from-layer="1873" from-port="1" to-layer="1874" to-port="1" />
		<edge from-layer="1874" from-port="2" to-layer="1875" to-port="1" />
		<edge from-layer="1875" from-port="2" to-layer="1876" to-port="0" />
		<edge from-layer="1876" from-port="2" to-layer="1878" to-port="0" />
		<edge from-layer="1877" from-port="0" to-layer="1878" to-port="1" />
		<edge from-layer="1878" from-port="2" to-layer="1881" to-port="0" />
		<edge from-layer="1879" from-port="0" to-layer="1880" to-port="0" />
		<edge from-layer="1880" from-port="1" to-layer="1881" to-port="1" />
		<edge from-layer="1881" from-port="2" to-layer="1884" to-port="0" />
		<edge from-layer="1882" from-port="0" to-layer="1883" to-port="0" />
		<edge from-layer="1883" from-port="1" to-layer="1884" to-port="1" />
		<edge from-layer="1884" from-port="2" to-layer="1913" to-port="0" />
		<edge from-layer="1884" from-port="2" to-layer="1928" to-port="1" />
		<edge from-layer="1884" from-port="2" to-layer="1897" to-port="0" />
		<edge from-layer="1884" from-port="2" to-layer="1887" to-port="0" />
		<edge from-layer="1885" from-port="0" to-layer="1886" to-port="0" />
		<edge from-layer="1886" from-port="1" to-layer="1887" to-port="1" />
		<edge from-layer="1887" from-port="2" to-layer="1888" to-port="1" />
		<edge from-layer="1888" from-port="2" to-layer="1890" to-port="0" />
		<edge from-layer="1889" from-port="0" to-layer="1890" to-port="1" />
		<edge from-layer="1890" from-port="2" to-layer="1892" to-port="0" />
		<edge from-layer="1891" from-port="0" to-layer="1892" to-port="1" />
		<edge from-layer="1892" from-port="2" to-layer="1906" to-port="0" />
		<edge from-layer="1893" from-port="0" to-layer="1894" to-port="0" />
		<edge from-layer="1894" from-port="1" to-layer="1898" to-port="0" />
		<edge from-layer="1895" from-port="0" to-layer="1896" to-port="0" />
		<edge from-layer="1896" from-port="1" to-layer="1897" to-port="1" />
		<edge from-layer="1897" from-port="2" to-layer="1898" to-port="1" />
		<edge from-layer="1898" from-port="2" to-layer="1900" to-port="0" />
		<edge from-layer="1899" from-port="0" to-layer="1900" to-port="1" />
		<edge from-layer="1900" from-port="2" to-layer="1902" to-port="0" />
		<edge from-layer="1901" from-port="0" to-layer="1902" to-port="1" />
		<edge from-layer="1902" from-port="2" to-layer="1905" to-port="0" />
		<edge from-layer="1903" from-port="0" to-layer="1904" to-port="0" />
		<edge from-layer="1904" from-port="1" to-layer="1905" to-port="1" />
		<edge from-layer="1905" from-port="2" to-layer="1906" to-port="1" />
		<edge from-layer="1906" from-port="2" to-layer="1907" to-port="0" />
		<edge from-layer="1907" from-port="2" to-layer="1908" to-port="0" />
		<edge from-layer="1908" from-port="1" to-layer="1919" to-port="0" />
		<edge from-layer="1909" from-port="0" to-layer="1910" to-port="0" />
		<edge from-layer="1910" from-port="1" to-layer="1914" to-port="0" />
		<edge from-layer="1911" from-port="0" to-layer="1912" to-port="0" />
		<edge from-layer="1912" from-port="1" to-layer="1913" to-port="1" />
		<edge from-layer="1913" from-port="2" to-layer="1914" to-port="1" />
		<edge from-layer="1914" from-port="2" to-layer="1916" to-port="0" />
		<edge from-layer="1915" from-port="0" to-layer="1916" to-port="1" />
		<edge from-layer="1916" from-port="2" to-layer="1918" to-port="0" />
		<edge from-layer="1917" from-port="0" to-layer="1918" to-port="1" />
		<edge from-layer="1918" from-port="2" to-layer="1919" to-port="1" />
		<edge from-layer="1919" from-port="2" to-layer="1921" to-port="0" />
		<edge from-layer="1920" from-port="0" to-layer="1921" to-port="1" />
		<edge from-layer="1921" from-port="2" to-layer="1923" to-port="0" />
		<edge from-layer="1922" from-port="0" to-layer="1923" to-port="1" />
		<edge from-layer="1923" from-port="2" to-layer="1926" to-port="0" />
		<edge from-layer="1924" from-port="0" to-layer="1925" to-port="0" />
		<edge from-layer="1925" from-port="1" to-layer="1926" to-port="1" />
		<edge from-layer="1926" from-port="2" to-layer="1927" to-port="1" />
		<edge from-layer="1927" from-port="2" to-layer="1928" to-port="0" />
		<edge from-layer="1928" from-port="2" to-layer="1930" to-port="0" />
		<edge from-layer="1929" from-port="0" to-layer="1930" to-port="1" />
		<edge from-layer="1930" from-port="2" to-layer="1933" to-port="0" />
		<edge from-layer="1931" from-port="0" to-layer="1932" to-port="0" />
		<edge from-layer="1932" from-port="1" to-layer="1933" to-port="1" />
		<edge from-layer="1933" from-port="2" to-layer="1936" to-port="0" />
		<edge from-layer="1934" from-port="0" to-layer="1935" to-port="0" />
		<edge from-layer="1935" from-port="1" to-layer="1936" to-port="1" />
		<edge from-layer="1936" from-port="2" to-layer="1980" to-port="1" />
		<edge from-layer="1936" from-port="2" to-layer="1939" to-port="0" />
		<edge from-layer="1937" from-port="0" to-layer="1938" to-port="0" />
		<edge from-layer="1938" from-port="1" to-layer="1939" to-port="1" />
		<edge from-layer="1939" from-port="2" to-layer="1940" to-port="1" />
		<edge from-layer="1940" from-port="2" to-layer="1942" to-port="0" />
		<edge from-layer="1941" from-port="0" to-layer="1942" to-port="1" />
		<edge from-layer="1942" from-port="2" to-layer="1944" to-port="0" />
		<edge from-layer="1943" from-port="0" to-layer="1944" to-port="1" />
		<edge from-layer="1944" from-port="2" to-layer="1958" to-port="0" />
		<edge from-layer="1945" from-port="0" to-layer="1946" to-port="0" />
		<edge from-layer="1946" from-port="1" to-layer="1950" to-port="0" />
		<edge from-layer="1947" from-port="0" to-layer="1948" to-port="0" />
		<edge from-layer="1948" from-port="1" to-layer="1949" to-port="1" />
		<edge from-layer="1949" from-port="2" to-layer="1950" to-port="1" />
		<edge from-layer="1950" from-port="2" to-layer="1952" to-port="0" />
		<edge from-layer="1951" from-port="0" to-layer="1952" to-port="1" />
		<edge from-layer="1952" from-port="2" to-layer="1954" to-port="0" />
		<edge from-layer="1953" from-port="0" to-layer="1954" to-port="1" />
		<edge from-layer="1954" from-port="2" to-layer="1957" to-port="0" />
		<edge from-layer="1955" from-port="0" to-layer="1956" to-port="0" />
		<edge from-layer="1956" from-port="1" to-layer="1957" to-port="1" />
		<edge from-layer="1957" from-port="2" to-layer="1958" to-port="1" />
		<edge from-layer="1958" from-port="2" to-layer="1959" to-port="0" />
		<edge from-layer="1959" from-port="2" to-layer="1960" to-port="0" />
		<edge from-layer="1960" from-port="1" to-layer="1971" to-port="0" />
		<edge from-layer="1961" from-port="0" to-layer="1962" to-port="0" />
		<edge from-layer="1962" from-port="1" to-layer="1966" to-port="0" />
		<edge from-layer="1963" from-port="0" to-layer="1964" to-port="0" />
		<edge from-layer="1964" from-port="1" to-layer="1965" to-port="1" />
		<edge from-layer="1965" from-port="2" to-layer="1966" to-port="1" />
		<edge from-layer="1966" from-port="2" to-layer="1968" to-port="0" />
		<edge from-layer="1967" from-port="0" to-layer="1968" to-port="1" />
		<edge from-layer="1968" from-port="2" to-layer="1970" to-port="0" />
		<edge from-layer="1969" from-port="0" to-layer="1970" to-port="1" />
		<edge from-layer="1970" from-port="2" to-layer="1971" to-port="1" />
		<edge from-layer="1971" from-port="2" to-layer="1973" to-port="0" />
		<edge from-layer="1972" from-port="0" to-layer="1973" to-port="1" />
		<edge from-layer="1973" from-port="2" to-layer="1975" to-port="0" />
		<edge from-layer="1974" from-port="0" to-layer="1975" to-port="1" />
		<edge from-layer="1975" from-port="2" to-layer="1978" to-port="0" />
		<edge from-layer="1976" from-port="0" to-layer="1977" to-port="0" />
		<edge from-layer="1977" from-port="1" to-layer="1978" to-port="1" />
		<edge from-layer="1978" from-port="2" to-layer="1979" to-port="1" />
		<edge from-layer="1979" from-port="2" to-layer="1980" to-port="0" />
		<edge from-layer="1980" from-port="2" to-layer="1982" to-port="0" />
		<edge from-layer="1981" from-port="0" to-layer="1982" to-port="1" />
		<edge from-layer="1982" from-port="2" to-layer="1985" to-port="0" />
		<edge from-layer="1983" from-port="0" to-layer="1984" to-port="0" />
		<edge from-layer="1984" from-port="1" to-layer="1985" to-port="1" />
		<edge from-layer="1985" from-port="2" to-layer="1988" to-port="0" />
		<edge from-layer="1986" from-port="0" to-layer="1987" to-port="0" />
		<edge from-layer="1987" from-port="1" to-layer="1988" to-port="1" />
		<edge from-layer="1988" from-port="2" to-layer="1998" to-port="1" />
		<edge from-layer="1988" from-port="2" to-layer="1991" to-port="0" />
		<edge from-layer="1989" from-port="0" to-layer="1990" to-port="0" />
		<edge from-layer="1990" from-port="1" to-layer="1991" to-port="1" />
		<edge from-layer="1991" from-port="2" to-layer="1992" to-port="1" />
		<edge from-layer="1992" from-port="2" to-layer="1993" to-port="0" />
		<edge from-layer="1993" from-port="1" to-layer="1996" to-port="0" />
		<edge from-layer="1994" from-port="0" to-layer="1995" to-port="0" />
		<edge from-layer="1995" from-port="1" to-layer="1996" to-port="1" />
		<edge from-layer="1996" from-port="2" to-layer="1997" to-port="1" />
		<edge from-layer="1997" from-port="2" to-layer="1998" to-port="0" />
		<edge from-layer="1998" from-port="2" to-layer="2000" to-port="0" />
		<edge from-layer="1999" from-port="0" to-layer="2000" to-port="1" />
		<edge from-layer="2000" from-port="2" to-layer="2003" to-port="0" />
		<edge from-layer="2001" from-port="0" to-layer="2002" to-port="0" />
		<edge from-layer="2002" from-port="1" to-layer="2003" to-port="1" />
		<edge from-layer="2003" from-port="2" to-layer="2006" to-port="0" />
		<edge from-layer="2004" from-port="0" to-layer="2005" to-port="0" />
		<edge from-layer="2005" from-port="1" to-layer="2006" to-port="1" />
		<edge from-layer="2006" from-port="2" to-layer="2050" to-port="1" />
		<edge from-layer="2006" from-port="2" to-layer="2009" to-port="0" />
		<edge from-layer="2006" from-port="2" to-layer="2035" to-port="0" />
		<edge from-layer="2006" from-port="2" to-layer="2019" to-port="0" />
		<edge from-layer="2007" from-port="0" to-layer="2008" to-port="0" />
		<edge from-layer="2008" from-port="1" to-layer="2009" to-port="1" />
		<edge from-layer="2009" from-port="2" to-layer="2010" to-port="1" />
		<edge from-layer="2010" from-port="2" to-layer="2012" to-port="0" />
		<edge from-layer="2011" from-port="0" to-layer="2012" to-port="1" />
		<edge from-layer="2012" from-port="2" to-layer="2014" to-port="0" />
		<edge from-layer="2013" from-port="0" to-layer="2014" to-port="1" />
		<edge from-layer="2014" from-port="2" to-layer="2028" to-port="0" />
		<edge from-layer="2015" from-port="0" to-layer="2016" to-port="0" />
		<edge from-layer="2016" from-port="1" to-layer="2020" to-port="0" />
		<edge from-layer="2017" from-port="0" to-layer="2018" to-port="0" />
		<edge from-layer="2018" from-port="1" to-layer="2019" to-port="1" />
		<edge from-layer="2019" from-port="2" to-layer="2020" to-port="1" />
		<edge from-layer="2020" from-port="2" to-layer="2022" to-port="0" />
		<edge from-layer="2021" from-port="0" to-layer="2022" to-port="1" />
		<edge from-layer="2022" from-port="2" to-layer="2024" to-port="0" />
		<edge from-layer="2023" from-port="0" to-layer="2024" to-port="1" />
		<edge from-layer="2024" from-port="2" to-layer="2027" to-port="0" />
		<edge from-layer="2025" from-port="0" to-layer="2026" to-port="0" />
		<edge from-layer="2026" from-port="1" to-layer="2027" to-port="1" />
		<edge from-layer="2027" from-port="2" to-layer="2028" to-port="1" />
		<edge from-layer="2028" from-port="2" to-layer="2029" to-port="0" />
		<edge from-layer="2029" from-port="2" to-layer="2030" to-port="0" />
		<edge from-layer="2030" from-port="1" to-layer="2041" to-port="0" />
		<edge from-layer="2031" from-port="0" to-layer="2032" to-port="0" />
		<edge from-layer="2032" from-port="1" to-layer="2036" to-port="0" />
		<edge from-layer="2033" from-port="0" to-layer="2034" to-port="0" />
		<edge from-layer="2034" from-port="1" to-layer="2035" to-port="1" />
		<edge from-layer="2035" from-port="2" to-layer="2036" to-port="1" />
		<edge from-layer="2036" from-port="2" to-layer="2038" to-port="0" />
		<edge from-layer="2037" from-port="0" to-layer="2038" to-port="1" />
		<edge from-layer="2038" from-port="2" to-layer="2040" to-port="0" />
		<edge from-layer="2039" from-port="0" to-layer="2040" to-port="1" />
		<edge from-layer="2040" from-port="2" to-layer="2041" to-port="1" />
		<edge from-layer="2041" from-port="2" to-layer="2043" to-port="0" />
		<edge from-layer="2042" from-port="0" to-layer="2043" to-port="1" />
		<edge from-layer="2043" from-port="2" to-layer="2045" to-port="0" />
		<edge from-layer="2044" from-port="0" to-layer="2045" to-port="1" />
		<edge from-layer="2045" from-port="2" to-layer="2048" to-port="0" />
		<edge from-layer="2046" from-port="0" to-layer="2047" to-port="0" />
		<edge from-layer="2047" from-port="1" to-layer="2048" to-port="1" />
		<edge from-layer="2048" from-port="2" to-layer="2049" to-port="1" />
		<edge from-layer="2049" from-port="2" to-layer="2050" to-port="0" />
		<edge from-layer="2050" from-port="2" to-layer="2052" to-port="0" />
		<edge from-layer="2051" from-port="0" to-layer="2052" to-port="1" />
		<edge from-layer="2052" from-port="2" to-layer="2055" to-port="0" />
		<edge from-layer="2053" from-port="0" to-layer="2054" to-port="0" />
		<edge from-layer="2054" from-port="1" to-layer="2055" to-port="1" />
		<edge from-layer="2055" from-port="2" to-layer="2058" to-port="0" />
		<edge from-layer="2056" from-port="0" to-layer="2057" to-port="0" />
		<edge from-layer="2057" from-port="1" to-layer="2058" to-port="1" />
		<edge from-layer="2058" from-port="2" to-layer="2102" to-port="1" />
		<edge from-layer="2058" from-port="2" to-layer="2061" to-port="0" />
		<edge from-layer="2059" from-port="0" to-layer="2060" to-port="0" />
		<edge from-layer="2060" from-port="1" to-layer="2061" to-port="1" />
		<edge from-layer="2061" from-port="2" to-layer="2062" to-port="1" />
		<edge from-layer="2062" from-port="2" to-layer="2064" to-port="0" />
		<edge from-layer="2063" from-port="0" to-layer="2064" to-port="1" />
		<edge from-layer="2064" from-port="2" to-layer="2066" to-port="0" />
		<edge from-layer="2065" from-port="0" to-layer="2066" to-port="1" />
		<edge from-layer="2066" from-port="2" to-layer="2080" to-port="0" />
		<edge from-layer="2067" from-port="0" to-layer="2068" to-port="0" />
		<edge from-layer="2068" from-port="1" to-layer="2072" to-port="0" />
		<edge from-layer="2069" from-port="0" to-layer="2070" to-port="0" />
		<edge from-layer="2070" from-port="1" to-layer="2071" to-port="1" />
		<edge from-layer="2071" from-port="2" to-layer="2072" to-port="1" />
		<edge from-layer="2072" from-port="2" to-layer="2074" to-port="0" />
		<edge from-layer="2073" from-port="0" to-layer="2074" to-port="1" />
		<edge from-layer="2074" from-port="2" to-layer="2076" to-port="0" />
		<edge from-layer="2075" from-port="0" to-layer="2076" to-port="1" />
		<edge from-layer="2076" from-port="2" to-layer="2079" to-port="0" />
		<edge from-layer="2077" from-port="0" to-layer="2078" to-port="0" />
		<edge from-layer="2078" from-port="1" to-layer="2079" to-port="1" />
		<edge from-layer="2079" from-port="2" to-layer="2080" to-port="1" />
		<edge from-layer="2080" from-port="2" to-layer="2081" to-port="0" />
		<edge from-layer="2081" from-port="2" to-layer="2082" to-port="0" />
		<edge from-layer="2082" from-port="1" to-layer="2093" to-port="0" />
		<edge from-layer="2083" from-port="0" to-layer="2084" to-port="0" />
		<edge from-layer="2084" from-port="1" to-layer="2088" to-port="0" />
		<edge from-layer="2085" from-port="0" to-layer="2086" to-port="0" />
		<edge from-layer="2086" from-port="1" to-layer="2087" to-port="1" />
		<edge from-layer="2087" from-port="2" to-layer="2088" to-port="1" />
		<edge from-layer="2088" from-port="2" to-layer="2090" to-port="0" />
		<edge from-layer="2089" from-port="0" to-layer="2090" to-port="1" />
		<edge from-layer="2090" from-port="2" to-layer="2092" to-port="0" />
		<edge from-layer="2091" from-port="0" to-layer="2092" to-port="1" />
		<edge from-layer="2092" from-port="2" to-layer="2093" to-port="1" />
		<edge from-layer="2093" from-port="2" to-layer="2095" to-port="0" />
		<edge from-layer="2094" from-port="0" to-layer="2095" to-port="1" />
		<edge from-layer="2095" from-port="2" to-layer="2097" to-port="0" />
		<edge from-layer="2096" from-port="0" to-layer="2097" to-port="1" />
		<edge from-layer="2097" from-port="2" to-layer="2100" to-port="0" />
		<edge from-layer="2098" from-port="0" to-layer="2099" to-port="0" />
		<edge from-layer="2099" from-port="1" to-layer="2100" to-port="1" />
		<edge from-layer="2100" from-port="2" to-layer="2101" to-port="1" />
		<edge from-layer="2101" from-port="2" to-layer="2102" to-port="0" />
		<edge from-layer="2102" from-port="2" to-layer="2104" to-port="0" />
		<edge from-layer="2103" from-port="0" to-layer="2104" to-port="1" />
		<edge from-layer="2104" from-port="2" to-layer="2107" to-port="0" />
		<edge from-layer="2105" from-port="0" to-layer="2106" to-port="0" />
		<edge from-layer="2106" from-port="1" to-layer="2107" to-port="1" />
		<edge from-layer="2107" from-port="2" to-layer="2110" to-port="0" />
		<edge from-layer="2108" from-port="0" to-layer="2109" to-port="0" />
		<edge from-layer="2109" from-port="1" to-layer="2110" to-port="1" />
		<edge from-layer="2110" from-port="2" to-layer="2120" to-port="1" />
		<edge from-layer="2110" from-port="2" to-layer="2113" to-port="0" />
		<edge from-layer="2111" from-port="0" to-layer="2112" to-port="0" />
		<edge from-layer="2112" from-port="1" to-layer="2113" to-port="1" />
		<edge from-layer="2113" from-port="2" to-layer="2114" to-port="1" />
		<edge from-layer="2114" from-port="2" to-layer="2115" to-port="0" />
		<edge from-layer="2115" from-port="1" to-layer="2118" to-port="0" />
		<edge from-layer="2116" from-port="0" to-layer="2117" to-port="0" />
		<edge from-layer="2117" from-port="1" to-layer="2118" to-port="1" />
		<edge from-layer="2118" from-port="2" to-layer="2119" to-port="1" />
		<edge from-layer="2119" from-port="2" to-layer="2120" to-port="0" />
		<edge from-layer="2120" from-port="2" to-layer="2122" to-port="0" />
		<edge from-layer="2121" from-port="0" to-layer="2122" to-port="1" />
		<edge from-layer="2122" from-port="2" to-layer="2125" to-port="0" />
		<edge from-layer="2123" from-port="0" to-layer="2124" to-port="0" />
		<edge from-layer="2124" from-port="1" to-layer="2125" to-port="1" />
		<edge from-layer="2125" from-port="2" to-layer="2128" to-port="0" />
		<edge from-layer="2126" from-port="0" to-layer="2127" to-port="0" />
		<edge from-layer="2127" from-port="1" to-layer="2128" to-port="1" />
		<edge from-layer="2128" from-port="2" to-layer="2157" to-port="0" />
		<edge from-layer="2128" from-port="2" to-layer="2172" to-port="1" />
		<edge from-layer="2128" from-port="2" to-layer="2131" to-port="0" />
		<edge from-layer="2128" from-port="2" to-layer="2141" to-port="0" />
		<edge from-layer="2129" from-port="0" to-layer="2130" to-port="0" />
		<edge from-layer="2130" from-port="1" to-layer="2131" to-port="1" />
		<edge from-layer="2131" from-port="2" to-layer="2132" to-port="1" />
		<edge from-layer="2132" from-port="2" to-layer="2134" to-port="0" />
		<edge from-layer="2133" from-port="0" to-layer="2134" to-port="1" />
		<edge from-layer="2134" from-port="2" to-layer="2136" to-port="0" />
		<edge from-layer="2135" from-port="0" to-layer="2136" to-port="1" />
		<edge from-layer="2136" from-port="2" to-layer="2150" to-port="0" />
		<edge from-layer="2137" from-port="0" to-layer="2138" to-port="0" />
		<edge from-layer="2138" from-port="1" to-layer="2142" to-port="0" />
		<edge from-layer="2139" from-port="0" to-layer="2140" to-port="0" />
		<edge from-layer="2140" from-port="1" to-layer="2141" to-port="1" />
		<edge from-layer="2141" from-port="2" to-layer="2142" to-port="1" />
		<edge from-layer="2142" from-port="2" to-layer="2144" to-port="0" />
		<edge from-layer="2143" from-port="0" to-layer="2144" to-port="1" />
		<edge from-layer="2144" from-port="2" to-layer="2146" to-port="0" />
		<edge from-layer="2145" from-port="0" to-layer="2146" to-port="1" />
		<edge from-layer="2146" from-port="2" to-layer="2149" to-port="0" />
		<edge from-layer="2147" from-port="0" to-layer="2148" to-port="0" />
		<edge from-layer="2148" from-port="1" to-layer="2149" to-port="1" />
		<edge from-layer="2149" from-port="2" to-layer="2150" to-port="1" />
		<edge from-layer="2150" from-port="2" to-layer="2151" to-port="0" />
		<edge from-layer="2151" from-port="2" to-layer="2152" to-port="0" />
		<edge from-layer="2152" from-port="1" to-layer="2163" to-port="0" />
		<edge from-layer="2153" from-port="0" to-layer="2154" to-port="0" />
		<edge from-layer="2154" from-port="1" to-layer="2158" to-port="0" />
		<edge from-layer="2155" from-port="0" to-layer="2156" to-port="0" />
		<edge from-layer="2156" from-port="1" to-layer="2157" to-port="1" />
		<edge from-layer="2157" from-port="2" to-layer="2158" to-port="1" />
		<edge from-layer="2158" from-port="2" to-layer="2160" to-port="0" />
		<edge from-layer="2159" from-port="0" to-layer="2160" to-port="1" />
		<edge from-layer="2160" from-port="2" to-layer="2162" to-port="0" />
		<edge from-layer="2161" from-port="0" to-layer="2162" to-port="1" />
		<edge from-layer="2162" from-port="2" to-layer="2163" to-port="1" />
		<edge from-layer="2163" from-port="2" to-layer="2165" to-port="0" />
		<edge from-layer="2164" from-port="0" to-layer="2165" to-port="1" />
		<edge from-layer="2165" from-port="2" to-layer="2167" to-port="0" />
		<edge from-layer="2166" from-port="0" to-layer="2167" to-port="1" />
		<edge from-layer="2167" from-port="2" to-layer="2170" to-port="0" />
		<edge from-layer="2168" from-port="0" to-layer="2169" to-port="0" />
		<edge from-layer="2169" from-port="1" to-layer="2170" to-port="1" />
		<edge from-layer="2170" from-port="2" to-layer="2171" to-port="1" />
		<edge from-layer="2171" from-port="2" to-layer="2172" to-port="0" />
		<edge from-layer="2172" from-port="2" to-layer="2174" to-port="0" />
		<edge from-layer="2173" from-port="0" to-layer="2174" to-port="1" />
		<edge from-layer="2174" from-port="2" to-layer="2177" to-port="0" />
		<edge from-layer="2175" from-port="0" to-layer="2176" to-port="0" />
		<edge from-layer="2176" from-port="1" to-layer="2177" to-port="1" />
		<edge from-layer="2177" from-port="2" to-layer="2180" to-port="0" />
		<edge from-layer="2178" from-port="0" to-layer="2179" to-port="0" />
		<edge from-layer="2179" from-port="1" to-layer="2180" to-port="1" />
		<edge from-layer="2180" from-port="2" to-layer="2183" to-port="0" />
		<edge from-layer="2180" from-port="2" to-layer="2224" to-port="1" />
		<edge from-layer="2181" from-port="0" to-layer="2182" to-port="0" />
		<edge from-layer="2182" from-port="1" to-layer="2183" to-port="1" />
		<edge from-layer="2183" from-port="2" to-layer="2184" to-port="1" />
		<edge from-layer="2184" from-port="2" to-layer="2186" to-port="0" />
		<edge from-layer="2185" from-port="0" to-layer="2186" to-port="1" />
		<edge from-layer="2186" from-port="2" to-layer="2188" to-port="0" />
		<edge from-layer="2187" from-port="0" to-layer="2188" to-port="1" />
		<edge from-layer="2188" from-port="2" to-layer="2202" to-port="0" />
		<edge from-layer="2189" from-port="0" to-layer="2190" to-port="0" />
		<edge from-layer="2190" from-port="1" to-layer="2194" to-port="0" />
		<edge from-layer="2191" from-port="0" to-layer="2192" to-port="0" />
		<edge from-layer="2192" from-port="1" to-layer="2193" to-port="1" />
		<edge from-layer="2193" from-port="2" to-layer="2194" to-port="1" />
		<edge from-layer="2194" from-port="2" to-layer="2196" to-port="0" />
		<edge from-layer="2195" from-port="0" to-layer="2196" to-port="1" />
		<edge from-layer="2196" from-port="2" to-layer="2198" to-port="0" />
		<edge from-layer="2197" from-port="0" to-layer="2198" to-port="1" />
		<edge from-layer="2198" from-port="2" to-layer="2201" to-port="0" />
		<edge from-layer="2199" from-port="0" to-layer="2200" to-port="0" />
		<edge from-layer="2200" from-port="1" to-layer="2201" to-port="1" />
		<edge from-layer="2201" from-port="2" to-layer="2202" to-port="1" />
		<edge from-layer="2202" from-port="2" to-layer="2203" to-port="0" />
		<edge from-layer="2203" from-port="2" to-layer="2204" to-port="0" />
		<edge from-layer="2204" from-port="1" to-layer="2215" to-port="0" />
		<edge from-layer="2205" from-port="0" to-layer="2206" to-port="0" />
		<edge from-layer="2206" from-port="1" to-layer="2210" to-port="0" />
		<edge from-layer="2207" from-port="0" to-layer="2208" to-port="0" />
		<edge from-layer="2208" from-port="1" to-layer="2209" to-port="1" />
		<edge from-layer="2209" from-port="2" to-layer="2210" to-port="1" />
		<edge from-layer="2210" from-port="2" to-layer="2212" to-port="0" />
		<edge from-layer="2211" from-port="0" to-layer="2212" to-port="1" />
		<edge from-layer="2212" from-port="2" to-layer="2214" to-port="0" />
		<edge from-layer="2213" from-port="0" to-layer="2214" to-port="1" />
		<edge from-layer="2214" from-port="2" to-layer="2215" to-port="1" />
		<edge from-layer="2215" from-port="2" to-layer="2217" to-port="0" />
		<edge from-layer="2216" from-port="0" to-layer="2217" to-port="1" />
		<edge from-layer="2217" from-port="2" to-layer="2219" to-port="0" />
		<edge from-layer="2218" from-port="0" to-layer="2219" to-port="1" />
		<edge from-layer="2219" from-port="2" to-layer="2222" to-port="0" />
		<edge from-layer="2220" from-port="0" to-layer="2221" to-port="0" />
		<edge from-layer="2221" from-port="1" to-layer="2222" to-port="1" />
		<edge from-layer="2222" from-port="2" to-layer="2223" to-port="1" />
		<edge from-layer="2223" from-port="2" to-layer="2224" to-port="0" />
		<edge from-layer="2224" from-port="2" to-layer="2226" to-port="0" />
		<edge from-layer="2225" from-port="0" to-layer="2226" to-port="1" />
		<edge from-layer="2226" from-port="2" to-layer="2229" to-port="0" />
		<edge from-layer="2227" from-port="0" to-layer="2228" to-port="0" />
		<edge from-layer="2228" from-port="1" to-layer="2229" to-port="1" />
		<edge from-layer="2229" from-port="2" to-layer="2232" to-port="0" />
		<edge from-layer="2230" from-port="0" to-layer="2231" to-port="0" />
		<edge from-layer="2231" from-port="1" to-layer="2232" to-port="1" />
		<edge from-layer="2232" from-port="2" to-layer="2235" to-port="0" />
		<edge from-layer="2232" from-port="2" to-layer="2242" to-port="1" />
		<edge from-layer="2233" from-port="0" to-layer="2234" to-port="0" />
		<edge from-layer="2234" from-port="1" to-layer="2235" to-port="1" />
		<edge from-layer="2235" from-port="2" to-layer="2236" to-port="1" />
		<edge from-layer="2236" from-port="2" to-layer="2237" to-port="0" />
		<edge from-layer="2237" from-port="1" to-layer="2240" to-port="0" />
		<edge from-layer="2238" from-port="0" to-layer="2239" to-port="0" />
		<edge from-layer="2239" from-port="1" to-layer="2240" to-port="1" />
		<edge from-layer="2240" from-port="2" to-layer="2241" to-port="1" />
		<edge from-layer="2241" from-port="2" to-layer="2242" to-port="0" />
		<edge from-layer="2242" from-port="2" to-layer="2244" to-port="0" />
		<edge from-layer="2243" from-port="0" to-layer="2244" to-port="1" />
		<edge from-layer="2244" from-port="2" to-layer="2247" to-port="0" />
		<edge from-layer="2245" from-port="0" to-layer="2246" to-port="0" />
		<edge from-layer="2246" from-port="1" to-layer="2247" to-port="1" />
		<edge from-layer="2247" from-port="2" to-layer="2250" to-port="0" />
		<edge from-layer="2248" from-port="0" to-layer="2249" to-port="0" />
		<edge from-layer="2249" from-port="1" to-layer="2250" to-port="1" />
		<edge from-layer="2250" from-port="2" to-layer="2253" to-port="0" />
		<edge from-layer="2250" from-port="2" to-layer="2294" to-port="1" />
		<edge from-layer="2250" from-port="2" to-layer="2279" to-port="0" />
		<edge from-layer="2250" from-port="2" to-layer="2263" to-port="0" />
		<edge from-layer="2251" from-port="0" to-layer="2252" to-port="0" />
		<edge from-layer="2252" from-port="1" to-layer="2253" to-port="1" />
		<edge from-layer="2253" from-port="2" to-layer="2254" to-port="1" />
		<edge from-layer="2254" from-port="2" to-layer="2256" to-port="0" />
		<edge from-layer="2255" from-port="0" to-layer="2256" to-port="1" />
		<edge from-layer="2256" from-port="2" to-layer="2258" to-port="0" />
		<edge from-layer="2257" from-port="0" to-layer="2258" to-port="1" />
		<edge from-layer="2258" from-port="2" to-layer="2272" to-port="0" />
		<edge from-layer="2259" from-port="0" to-layer="2260" to-port="0" />
		<edge from-layer="2260" from-port="1" to-layer="2264" to-port="0" />
		<edge from-layer="2261" from-port="0" to-layer="2262" to-port="0" />
		<edge from-layer="2262" from-port="1" to-layer="2263" to-port="1" />
		<edge from-layer="2263" from-port="2" to-layer="2264" to-port="1" />
		<edge from-layer="2264" from-port="2" to-layer="2266" to-port="0" />
		<edge from-layer="2265" from-port="0" to-layer="2266" to-port="1" />
		<edge from-layer="2266" from-port="2" to-layer="2268" to-port="0" />
		<edge from-layer="2267" from-port="0" to-layer="2268" to-port="1" />
		<edge from-layer="2268" from-port="2" to-layer="2271" to-port="0" />
		<edge from-layer="2269" from-port="0" to-layer="2270" to-port="0" />
		<edge from-layer="2270" from-port="1" to-layer="2271" to-port="1" />
		<edge from-layer="2271" from-port="2" to-layer="2272" to-port="1" />
		<edge from-layer="2272" from-port="2" to-layer="2273" to-port="0" />
		<edge from-layer="2273" from-port="2" to-layer="2274" to-port="0" />
		<edge from-layer="2274" from-port="1" to-layer="2285" to-port="0" />
		<edge from-layer="2275" from-port="0" to-layer="2276" to-port="0" />
		<edge from-layer="2276" from-port="1" to-layer="2280" to-port="0" />
		<edge from-layer="2277" from-port="0" to-layer="2278" to-port="0" />
		<edge from-layer="2278" from-port="1" to-layer="2279" to-port="1" />
		<edge from-layer="2279" from-port="2" to-layer="2280" to-port="1" />
		<edge from-layer="2280" from-port="2" to-layer="2282" to-port="0" />
		<edge from-layer="2281" from-port="0" to-layer="2282" to-port="1" />
		<edge from-layer="2282" from-port="2" to-layer="2284" to-port="0" />
		<edge from-layer="2283" from-port="0" to-layer="2284" to-port="1" />
		<edge from-layer="2284" from-port="2" to-layer="2285" to-port="1" />
		<edge from-layer="2285" from-port="2" to-layer="2287" to-port="0" />
		<edge from-layer="2286" from-port="0" to-layer="2287" to-port="1" />
		<edge from-layer="2287" from-port="2" to-layer="2289" to-port="0" />
		<edge from-layer="2288" from-port="0" to-layer="2289" to-port="1" />
		<edge from-layer="2289" from-port="2" to-layer="2292" to-port="0" />
		<edge from-layer="2290" from-port="0" to-layer="2291" to-port="0" />
		<edge from-layer="2291" from-port="1" to-layer="2292" to-port="1" />
		<edge from-layer="2292" from-port="2" to-layer="2293" to-port="1" />
		<edge from-layer="2293" from-port="2" to-layer="2294" to-port="0" />
		<edge from-layer="2294" from-port="2" to-layer="2296" to-port="0" />
		<edge from-layer="2295" from-port="0" to-layer="2296" to-port="1" />
		<edge from-layer="2296" from-port="2" to-layer="2299" to-port="0" />
		<edge from-layer="2297" from-port="0" to-layer="2298" to-port="0" />
		<edge from-layer="2298" from-port="1" to-layer="2299" to-port="1" />
		<edge from-layer="2299" from-port="2" to-layer="2302" to-port="0" />
		<edge from-layer="2300" from-port="0" to-layer="2301" to-port="0" />
		<edge from-layer="2301" from-port="1" to-layer="2302" to-port="1" />
		<edge from-layer="2302" from-port="2" to-layer="2346" to-port="1" />
		<edge from-layer="2302" from-port="2" to-layer="2305" to-port="0" />
		<edge from-layer="2303" from-port="0" to-layer="2304" to-port="0" />
		<edge from-layer="2304" from-port="1" to-layer="2305" to-port="1" />
		<edge from-layer="2305" from-port="2" to-layer="2306" to-port="1" />
		<edge from-layer="2306" from-port="2" to-layer="2308" to-port="0" />
		<edge from-layer="2307" from-port="0" to-layer="2308" to-port="1" />
		<edge from-layer="2308" from-port="2" to-layer="2310" to-port="0" />
		<edge from-layer="2309" from-port="0" to-layer="2310" to-port="1" />
		<edge from-layer="2310" from-port="2" to-layer="2324" to-port="0" />
		<edge from-layer="2311" from-port="0" to-layer="2312" to-port="0" />
		<edge from-layer="2312" from-port="1" to-layer="2316" to-port="0" />
		<edge from-layer="2313" from-port="0" to-layer="2314" to-port="0" />
		<edge from-layer="2314" from-port="1" to-layer="2315" to-port="1" />
		<edge from-layer="2315" from-port="2" to-layer="2316" to-port="1" />
		<edge from-layer="2316" from-port="2" to-layer="2318" to-port="0" />
		<edge from-layer="2317" from-port="0" to-layer="2318" to-port="1" />
		<edge from-layer="2318" from-port="2" to-layer="2320" to-port="0" />
		<edge from-layer="2319" from-port="0" to-layer="2320" to-port="1" />
		<edge from-layer="2320" from-port="2" to-layer="2323" to-port="0" />
		<edge from-layer="2321" from-port="0" to-layer="2322" to-port="0" />
		<edge from-layer="2322" from-port="1" to-layer="2323" to-port="1" />
		<edge from-layer="2323" from-port="2" to-layer="2324" to-port="1" />
		<edge from-layer="2324" from-port="2" to-layer="2325" to-port="0" />
		<edge from-layer="2325" from-port="2" to-layer="2326" to-port="0" />
		<edge from-layer="2326" from-port="1" to-layer="2337" to-port="0" />
		<edge from-layer="2327" from-port="0" to-layer="2328" to-port="0" />
		<edge from-layer="2328" from-port="1" to-layer="2332" to-port="0" />
		<edge from-layer="2329" from-port="0" to-layer="2330" to-port="0" />
		<edge from-layer="2330" from-port="1" to-layer="2331" to-port="1" />
		<edge from-layer="2331" from-port="2" to-layer="2332" to-port="1" />
		<edge from-layer="2332" from-port="2" to-layer="2334" to-port="0" />
		<edge from-layer="2333" from-port="0" to-layer="2334" to-port="1" />
		<edge from-layer="2334" from-port="2" to-layer="2336" to-port="0" />
		<edge from-layer="2335" from-port="0" to-layer="2336" to-port="1" />
		<edge from-layer="2336" from-port="2" to-layer="2337" to-port="1" />
		<edge from-layer="2337" from-port="2" to-layer="2339" to-port="0" />
		<edge from-layer="2338" from-port="0" to-layer="2339" to-port="1" />
		<edge from-layer="2339" from-port="2" to-layer="2341" to-port="0" />
		<edge from-layer="2340" from-port="0" to-layer="2341" to-port="1" />
		<edge from-layer="2341" from-port="2" to-layer="2344" to-port="0" />
		<edge from-layer="2342" from-port="0" to-layer="2343" to-port="0" />
		<edge from-layer="2343" from-port="1" to-layer="2344" to-port="1" />
		<edge from-layer="2344" from-port="2" to-layer="2345" to-port="1" />
		<edge from-layer="2345" from-port="2" to-layer="2346" to-port="0" />
		<edge from-layer="2346" from-port="2" to-layer="2348" to-port="0" />
		<edge from-layer="2347" from-port="0" to-layer="2348" to-port="1" />
		<edge from-layer="2348" from-port="2" to-layer="2351" to-port="0" />
		<edge from-layer="2349" from-port="0" to-layer="2350" to-port="0" />
		<edge from-layer="2350" from-port="1" to-layer="2351" to-port="1" />
		<edge from-layer="2351" from-port="2" to-layer="2354" to-port="0" />
		<edge from-layer="2352" from-port="0" to-layer="2353" to-port="0" />
		<edge from-layer="2353" from-port="1" to-layer="2354" to-port="1" />
		<edge from-layer="2354" from-port="2" to-layer="2364" to-port="1" />
		<edge from-layer="2354" from-port="2" to-layer="2357" to-port="0" />
		<edge from-layer="2355" from-port="0" to-layer="2356" to-port="0" />
		<edge from-layer="2356" from-port="1" to-layer="2357" to-port="1" />
		<edge from-layer="2357" from-port="2" to-layer="2358" to-port="1" />
		<edge from-layer="2358" from-port="2" to-layer="2359" to-port="0" />
		<edge from-layer="2359" from-port="1" to-layer="2362" to-port="0" />
		<edge from-layer="2360" from-port="0" to-layer="2361" to-port="0" />
		<edge from-layer="2361" from-port="1" to-layer="2362" to-port="1" />
		<edge from-layer="2362" from-port="2" to-layer="2363" to-port="1" />
		<edge from-layer="2363" from-port="2" to-layer="2364" to-port="0" />
		<edge from-layer="2364" from-port="2" to-layer="2366" to-port="0" />
		<edge from-layer="2365" from-port="0" to-layer="2366" to-port="1" />
		<edge from-layer="2366" from-port="2" to-layer="2369" to-port="0" />
		<edge from-layer="2367" from-port="0" to-layer="2368" to-port="0" />
		<edge from-layer="2368" from-port="1" to-layer="2369" to-port="1" />
		<edge from-layer="2369" from-port="2" to-layer="2372" to-port="0" />
		<edge from-layer="2370" from-port="0" to-layer="2371" to-port="0" />
		<edge from-layer="2371" from-port="1" to-layer="2372" to-port="1" />
		<edge from-layer="2372" from-port="2" to-layer="2375" to-port="0" />
		<edge from-layer="2372" from-port="2" to-layer="2385" to-port="0" />
		<edge from-layer="2372" from-port="2" to-layer="2416" to-port="1" />
		<edge from-layer="2372" from-port="2" to-layer="2401" to-port="0" />
		<edge from-layer="2373" from-port="0" to-layer="2374" to-port="0" />
		<edge from-layer="2374" from-port="1" to-layer="2375" to-port="1" />
		<edge from-layer="2375" from-port="2" to-layer="2376" to-port="1" />
		<edge from-layer="2376" from-port="2" to-layer="2378" to-port="0" />
		<edge from-layer="2377" from-port="0" to-layer="2378" to-port="1" />
		<edge from-layer="2378" from-port="2" to-layer="2380" to-port="0" />
		<edge from-layer="2379" from-port="0" to-layer="2380" to-port="1" />
		<edge from-layer="2380" from-port="2" to-layer="2394" to-port="0" />
		<edge from-layer="2381" from-port="0" to-layer="2382" to-port="0" />
		<edge from-layer="2382" from-port="1" to-layer="2386" to-port="0" />
		<edge from-layer="2383" from-port="0" to-layer="2384" to-port="0" />
		<edge from-layer="2384" from-port="1" to-layer="2385" to-port="1" />
		<edge from-layer="2385" from-port="2" to-layer="2386" to-port="1" />
		<edge from-layer="2386" from-port="2" to-layer="2388" to-port="0" />
		<edge from-layer="2387" from-port="0" to-layer="2388" to-port="1" />
		<edge from-layer="2388" from-port="2" to-layer="2390" to-port="0" />
		<edge from-layer="2389" from-port="0" to-layer="2390" to-port="1" />
		<edge from-layer="2390" from-port="2" to-layer="2393" to-port="0" />
		<edge from-layer="2391" from-port="0" to-layer="2392" to-port="0" />
		<edge from-layer="2392" from-port="1" to-layer="2393" to-port="1" />
		<edge from-layer="2393" from-port="2" to-layer="2394" to-port="1" />
		<edge from-layer="2394" from-port="2" to-layer="2395" to-port="0" />
		<edge from-layer="2395" from-port="2" to-layer="2396" to-port="0" />
		<edge from-layer="2396" from-port="1" to-layer="2407" to-port="0" />
		<edge from-layer="2397" from-port="0" to-layer="2398" to-port="0" />
		<edge from-layer="2398" from-port="1" to-layer="2402" to-port="0" />
		<edge from-layer="2399" from-port="0" to-layer="2400" to-port="0" />
		<edge from-layer="2400" from-port="1" to-layer="2401" to-port="1" />
		<edge from-layer="2401" from-port="2" to-layer="2402" to-port="1" />
		<edge from-layer="2402" from-port="2" to-layer="2404" to-port="0" />
		<edge from-layer="2403" from-port="0" to-layer="2404" to-port="1" />
		<edge from-layer="2404" from-port="2" to-layer="2406" to-port="0" />
		<edge from-layer="2405" from-port="0" to-layer="2406" to-port="1" />
		<edge from-layer="2406" from-port="2" to-layer="2407" to-port="1" />
		<edge from-layer="2407" from-port="2" to-layer="2409" to-port="0" />
		<edge from-layer="2408" from-port="0" to-layer="2409" to-port="1" />
		<edge from-layer="2409" from-port="2" to-layer="2411" to-port="0" />
		<edge from-layer="2410" from-port="0" to-layer="2411" to-port="1" />
		<edge from-layer="2411" from-port="2" to-layer="2414" to-port="0" />
		<edge from-layer="2412" from-port="0" to-layer="2413" to-port="0" />
		<edge from-layer="2413" from-port="1" to-layer="2414" to-port="1" />
		<edge from-layer="2414" from-port="2" to-layer="2415" to-port="1" />
		<edge from-layer="2415" from-port="2" to-layer="2416" to-port="0" />
		<edge from-layer="2416" from-port="2" to-layer="2418" to-port="0" />
		<edge from-layer="2417" from-port="0" to-layer="2418" to-port="1" />
		<edge from-layer="2418" from-port="2" to-layer="2421" to-port="0" />
		<edge from-layer="2419" from-port="0" to-layer="2420" to-port="0" />
		<edge from-layer="2420" from-port="1" to-layer="2421" to-port="1" />
		<edge from-layer="2421" from-port="2" to-layer="2424" to-port="0" />
		<edge from-layer="2422" from-port="0" to-layer="2423" to-port="0" />
		<edge from-layer="2423" from-port="1" to-layer="2424" to-port="1" />
		<edge from-layer="2424" from-port="2" to-layer="2427" to-port="0" />
		<edge from-layer="2424" from-port="2" to-layer="2468" to-port="1" />
		<edge from-layer="2425" from-port="0" to-layer="2426" to-port="0" />
		<edge from-layer="2426" from-port="1" to-layer="2427" to-port="1" />
		<edge from-layer="2427" from-port="2" to-layer="2428" to-port="1" />
		<edge from-layer="2428" from-port="2" to-layer="2430" to-port="0" />
		<edge from-layer="2429" from-port="0" to-layer="2430" to-port="1" />
		<edge from-layer="2430" from-port="2" to-layer="2432" to-port="0" />
		<edge from-layer="2431" from-port="0" to-layer="2432" to-port="1" />
		<edge from-layer="2432" from-port="2" to-layer="2446" to-port="0" />
		<edge from-layer="2433" from-port="0" to-layer="2434" to-port="0" />
		<edge from-layer="2434" from-port="1" to-layer="2438" to-port="0" />
		<edge from-layer="2435" from-port="0" to-layer="2436" to-port="0" />
		<edge from-layer="2436" from-port="1" to-layer="2437" to-port="1" />
		<edge from-layer="2437" from-port="2" to-layer="2438" to-port="1" />
		<edge from-layer="2438" from-port="2" to-layer="2440" to-port="0" />
		<edge from-layer="2439" from-port="0" to-layer="2440" to-port="1" />
		<edge from-layer="2440" from-port="2" to-layer="2442" to-port="0" />
		<edge from-layer="2441" from-port="0" to-layer="2442" to-port="1" />
		<edge from-layer="2442" from-port="2" to-layer="2445" to-port="0" />
		<edge from-layer="2443" from-port="0" to-layer="2444" to-port="0" />
		<edge from-layer="2444" from-port="1" to-layer="2445" to-port="1" />
		<edge from-layer="2445" from-port="2" to-layer="2446" to-port="1" />
		<edge from-layer="2446" from-port="2" to-layer="2447" to-port="0" />
		<edge from-layer="2447" from-port="2" to-layer="2448" to-port="0" />
		<edge from-layer="2448" from-port="1" to-layer="2459" to-port="0" />
		<edge from-layer="2449" from-port="0" to-layer="2450" to-port="0" />
		<edge from-layer="2450" from-port="1" to-layer="2454" to-port="0" />
		<edge from-layer="2451" from-port="0" to-layer="2452" to-port="0" />
		<edge from-layer="2452" from-port="1" to-layer="2453" to-port="1" />
		<edge from-layer="2453" from-port="2" to-layer="2454" to-port="1" />
		<edge from-layer="2454" from-port="2" to-layer="2456" to-port="0" />
		<edge from-layer="2455" from-port="0" to-layer="2456" to-port="1" />
		<edge from-layer="2456" from-port="2" to-layer="2458" to-port="0" />
		<edge from-layer="2457" from-port="0" to-layer="2458" to-port="1" />
		<edge from-layer="2458" from-port="2" to-layer="2459" to-port="1" />
		<edge from-layer="2459" from-port="2" to-layer="2461" to-port="0" />
		<edge from-layer="2460" from-port="0" to-layer="2461" to-port="1" />
		<edge from-layer="2461" from-port="2" to-layer="2463" to-port="0" />
		<edge from-layer="2462" from-port="0" to-layer="2463" to-port="1" />
		<edge from-layer="2463" from-port="2" to-layer="2466" to-port="0" />
		<edge from-layer="2464" from-port="0" to-layer="2465" to-port="0" />
		<edge from-layer="2465" from-port="1" to-layer="2466" to-port="1" />
		<edge from-layer="2466" from-port="2" to-layer="2467" to-port="1" />
		<edge from-layer="2467" from-port="2" to-layer="2468" to-port="0" />
		<edge from-layer="2468" from-port="2" to-layer="2470" to-port="0" />
		<edge from-layer="2469" from-port="0" to-layer="2470" to-port="1" />
		<edge from-layer="2470" from-port="2" to-layer="2473" to-port="0" />
		<edge from-layer="2471" from-port="0" to-layer="2472" to-port="0" />
		<edge from-layer="2472" from-port="1" to-layer="2473" to-port="1" />
		<edge from-layer="2473" from-port="2" to-layer="2476" to-port="0" />
		<edge from-layer="2474" from-port="0" to-layer="2475" to-port="0" />
		<edge from-layer="2475" from-port="1" to-layer="2476" to-port="1" />
		<edge from-layer="2476" from-port="2" to-layer="2479" to-port="0" />
		<edge from-layer="2476" from-port="2" to-layer="2486" to-port="1" />
		<edge from-layer="2477" from-port="0" to-layer="2478" to-port="0" />
		<edge from-layer="2478" from-port="1" to-layer="2479" to-port="1" />
		<edge from-layer="2479" from-port="2" to-layer="2480" to-port="1" />
		<edge from-layer="2480" from-port="2" to-layer="2481" to-port="0" />
		<edge from-layer="2481" from-port="1" to-layer="2484" to-port="0" />
		<edge from-layer="2482" from-port="0" to-layer="2483" to-port="0" />
		<edge from-layer="2483" from-port="1" to-layer="2484" to-port="1" />
		<edge from-layer="2484" from-port="2" to-layer="2485" to-port="1" />
		<edge from-layer="2485" from-port="2" to-layer="2486" to-port="0" />
		<edge from-layer="2486" from-port="2" to-layer="2488" to-port="0" />
		<edge from-layer="2487" from-port="0" to-layer="2488" to-port="1" />
		<edge from-layer="2488" from-port="2" to-layer="2491" to-port="0" />
		<edge from-layer="2489" from-port="0" to-layer="2490" to-port="0" />
		<edge from-layer="2490" from-port="1" to-layer="2491" to-port="1" />
		<edge from-layer="2491" from-port="2" to-layer="2494" to-port="0" />
		<edge from-layer="2492" from-port="0" to-layer="2493" to-port="0" />
		<edge from-layer="2493" from-port="1" to-layer="2494" to-port="1" />
		<edge from-layer="2494" from-port="2" to-layer="2497" to-port="0" />
		<edge from-layer="2495" from-port="0" to-layer="2496" to-port="0" />
		<edge from-layer="2496" from-port="1" to-layer="2497" to-port="1" />
		<edge from-layer="2497" from-port="2" to-layer="2498" to-port="1" />
		<edge from-layer="2498" from-port="2" to-layer="2499" to-port="0" />
		<edge from-layer="2499" from-port="1" to-layer="2501" to-port="0" />
		<edge from-layer="2500" from-port="0" to-layer="2501" to-port="1" />
		<edge from-layer="2501" from-port="2" to-layer="2504" to-port="0" />
		<edge from-layer="2502" from-port="0" to-layer="2503" to-port="0" />
		<edge from-layer="2503" from-port="1" to-layer="2504" to-port="1" />
		<edge from-layer="2504" from-port="2" to-layer="2507" to-port="0" />
		<edge from-layer="2505" from-port="0" to-layer="2506" to-port="0" />
		<edge from-layer="2506" from-port="1" to-layer="2507" to-port="1" />
		<edge from-layer="2507" from-port="2" to-layer="2510" to-port="0" />
		<edge from-layer="2508" from-port="0" to-layer="2509" to-port="0" />
		<edge from-layer="2509" from-port="1" to-layer="2510" to-port="1" />
		<edge from-layer="2510" from-port="2" to-layer="2511" to-port="1" />
		<edge from-layer="2511" from-port="2" to-layer="2512" to-port="0" />
	</edges>
	<rt_info>
		<MO_version value="2024.6.0-17404-4c0f47d2335-releases/2024/6" />
		<Runtime_version value="2024.6.0-17404-4c0f47d2335-releases/2024/6" />
		<conversion_parameters>
			<input_model value="DIR\blip_model.onnx" />
			<is_python_api_used value="False" />
			<output_dir value="C:\Users\himar\OneDrive\Desktop\AI_Classroom_Assistant\Elearn\blip_openvino" />
		</conversion_parameters>
		<legacy_frontend value="False" />
	</rt_info>
</net>
